trained_models/2d_static_classifier_5_epochs.pth (torch, 18120 bytes, 7 tensors)

fc1.weight f4 [64, 15]
0.019555073 -0.24213451 0.004666439 -0.21436585 -0.11178079 -0.07660682 -0.19668253 0.10047354
0.18720645 0.19531235 -0.24217068 -0.13867328 -0.18613805 0.15634382 0.2683124 0.16928628
-0.10217834 0.037887465 0.09232645 0.0332497 -0.25590962 -0.10854792 0.06580236 -0.02933622
0.22244978 0.020189002 -0.18032455 0.075821385 0.18159606 0.032809235 0.10728838 -0.2476626
-0.28219712 -0.21747786 -0.03263469 -0.12479308 -0.12973829 -0.06379597 0.24405175 0.24613751
0.12451823 0.024914987 -0.083614096 -0.21530968 0.090930216 -0.20613764 0.18740599 0.13973281
-0.027534079 -0.17522621 -0.045588274 0.26589558 0.20061503 -0.08178465 -0.114250384 0.13396671
0.17554452 0.1527287 -0.22931127 -0.07022157 0.23919345 0.26791728 0.35389096 0.052926615
0.14061648 -0.11809243 -0.03339464 0.025472324 -0.13411367 0.21346208 -0.07821869 -0.02348404
0.09423828 0.049211662 -0.115568236 0.12516041 0.32623157 0.28991744 0.019438837 -0.0040110494
0.19139354 0.10753551 -0.1497551 0.2780161 0.010277947 -0.17896196 0.23190226 0.00439147
0.15316828 0.08769347 0.08096082 0.105170056 0.26616225 0.07821371 0.09680514 0.19389
-0.0444392 -0.17499246 -0.0043027145 -0.05283787 -0.18763173 -0.07379512 -0.06626771 -0.18143837
-0.20286207 -0.21294786 0.20136929 -0.062002923 -0.12935166 0.11529398 -0.19070208 -0.03572386
0.18116611 -0.022006847 -0.09494028 -0.15443668 -0.0054794783 0.10491001 -0.085347734 0.011565138
0.16791902 -0.09833583 0.28689682 0.08448525 0.2584166 0.045157433 -0.13503775 0.108018525
-0.1425645 0.06290294 -0.16750248 -0.09565845 -0.1116202 0.1325387 0.24366179 -0.0044824937
0.057330377 0.1707755 -0.032036882 0.22502372 0.24925525 -0.15615973 0.055847928 -0.132247
0.17997804 -0.10999192 -0.10270608 0.2150092 0.242884 0.27804118 0.31746385 0.3587487
0.28902763 -0.021876382 0.21736221 0.26108325 0.050396953 -0.08182794 -0.101838075 0.16324684
-0.16174693 -0.12740499 -0.16309829 0.12536846 0.019021353 0.27955794 -0.08721004 -0.10815875
-0.012454712 0.29744938 -0.07138868 0.20846389 0.030798212 0.16550474 -0.2105354 -0.21694674
-0.014870955 0.1944601 0.19123383 0.11729663 0.025940262 -0.1078477 -0.2503359 -0.05370736
-0.07238755 -0.24263513 0.03225803 0.22965921 0.11453324 0.17598064 0.04874445 -0.30428877
0.10270745 0.20625994 -0.07658257 0.14042881 -0.21609187 0.15501262 -0.09015924 -0.035924427
-0.122488424 0.16545704 0.07908323 0.06895641 0.16997801 0.1734389 0.0073282975 0.18230279
0.16718842 0.18401605 -0.07213099 0.12929203 -0.23449135 -0.01908121 0.2002682 0.28378445
0.16920951 -0.16963564 0.122292295 0.10292923 -0.099689946 0.15157653 0.14548936 -0.01731219
0.07904302 0.29802603 0.23870727 0.37923113 0.20866738 0.1781789 -0.03158951 0.1920001
0.029780181 0.2636332 -0.06883627 -0.13297728 -0.019973379 -0.1280326 0.040368777 -0.018652914
-0.082654975 -0.068319194 0.2767612 -0.052710112 0.109729335 0.22045876 0.24766727 -0.17135306
0.23814395 -0.12662116 -0.08332632 -0.085006945 0.15966508 0.029172461 0.12556437 -0.16616859
00000000: f631 a03c 1cf2 77be ede8 983b b982 5bbe
00000010: 54ed e4bd 09e4 9cbd 2567 49be 12c5 cd3d
00000020: 0cb3 3f3e f6ff 473e 97fb 77be 5e00 0ebe
00000030: f99a 3ebe 9818 203e 3e60 893e 6259 2d3e
00000040: e142 d1bd e32f 1b3d a615 bd3d d630 083d
00000050: 9606 83be 5f4e debd 63c3 863d 8352 f0bc
00000060: e0c9 633e 6863 a53c 00a7 38be 3e48 9b3d
00000070: 51f4 393e fa62 063d 03ba db3d 449b 7dbe
00000080: 247c 90be 84b2 5ebe f4ab 05bd 8493 ffbd
00000090: 1dda 04be 76a7 82bd b4e8 793e 790b 7c3e
000000a0: 6a03 ff3d 841a cc3c de3d abbd 247a 5cbe
000000b0: 9f39 ba3d bf15 53be 5be7 3f3e 1e16 0f3e
000000c0: 268f e1bc 806e 33be c5ba 3abd 7723 883e
000000d0: 076e 4d3e b67e a7bd 1bfc e9bd 922e 093e
000000e0: f1c1 333e ea64 1c3e 93d0 6abe 54d0 8fbd
000000f0: 21ef 743e 742c 893e 3231 b53e 94c9 583d
00000100: c4fd 0f3e 72da f1bd d1c8 08bd 56ab d03c
00000110: 1855 09be ce95 5a3e 1f31 a0bd 9a61 c0bc
00000120: 0000 c13d 2b92 493d 0aaf ecbd 0d2a 003e
00000130: d307 a73e 0f70 943e 323e 9f3c 1f6f 83bb
00000140: abfc 433e 943b dc3d 6759 19be 2058 8e3e
00000150: d664 283c ce41 37be c977 6d3e 52e6 8f3b
00000160: 25d8 1c3e a298 b33d c9ce a53d 6663 d73d
00000170: 6b46 883e 822e a03d c641 c63d 1a8b 463e
00000180: e105 36bd 3931 33be c9fd 8cbb 866c 58bd
00000190: 8822 40be e521 97bd 5db7 87bd fbca 39be
000001a0: 13bb 4fbe 010f 5abe c033 4e3e c7f6 7dbd
000001b0: c374 04be 401f ec3d 6847 43be 2f53 12bd
000001c0: 9c83 393e b447 b4bc 0d70 c2bd a624 1ebe
000001d0: 328d b3bb 0fdb d63d cbca aebd b47b 3d3c
000001e0: f7f2 2b3e 4c64 c9bd 24e4 923e 9a06 ad3d
000001f0: 2e4f 843e 00f7 383d 5647 0abe d138 dd3d
00000200: 6efc 11be 42d3 803d c585 2bbe 94e8 c3bd
00000210: 2299 e4bd 3ab8 073e 7a82 793e e2e1 92bb
00000220: 42d3 6a3d c6df 2e3e 1b39 03bd 9e6c 663e
00000230: c53c 7f3e 56e8 1fbe ccc0 643d c26b 07be
00000240: 2a4c 383e 7243 e1bd 9157 d2bd 5f2b 5c3e
00000250: 95b6 783e 6a5b 8e3e 9f8a a23e e9ad b73e
00000260: 6efb 933e 1936 b3bc 3394 5e3e b4ac 853e
00000270: 096d 4e3d 6895 a7bd 7b90 d0bd 2e2a 273e
00000280: fda0 25be 7476 02be 3d03 27be 9760 003e
00000290: abd2 9b3c 3822 8f3e 2d9b b2bd 5682 ddbd
000002a0: d90e 4cbc 494b 983e 3a34 92bd 8f77 553e
000002b0: 884c fc3c 137a 293e 9896 57be 4927 5ebe
000002c0: 4ea5 73bc 8c20 473e cdd2 433e 3739 f03d
000002d0: ac80 d43c 41df dcbd 072c 80be 40fc 5bbd
000002e0: ec3f 94bd 5875 78be ff20 043d c92b 6b3e
000002f0: 6790 ea3d 4534 343e 43a8 473d bdcb 9bbe
00000300: 4958 d23d ce35 533e 53d7 9cbd 92cc 0f3e
00000310: 3047 5dbe a1bb 1e3e 68a5 b8bd 7e25 13bd
00000320: 36db fabd 926d 293e 63f6 a13d 0539 8d3d
00000330: b70e 2e3e f899 313e 3722 f03b 95ad 3a3e
00000340: 7133 2b3e b46e 3c3e 6ab9 93bd 2165 043e
00000350: 801e 70be 3350 9cbc 1b13 4d3e 324c 913e
00000360: 4245 2d3e f7b4 2dbe 6274 fa3d 8fcc d23d
00000370: 3e2a ccbd e136 1b3e 2afb 143e 4bd2 8dbc
00000380: 4fe1 a13d de96 983e ae6f 743e 952a c23e
00000390: e7ac 553e 8874 363e 0164 01bd ad9b 443e
000003a0: 91f5 f33c eefa 863e 08fa 8cbd 322b 08be
000003b0: 369f a3bc fa1a 03be bb59 253d ffcd 98bc
000003c0: 0347 a9bd efea 8bbd a5b3 8d3e 8fe6 57bd
000003d0: c6b9 e03d f1bf 613e 7d9c 7d3e 2d77 2fbe
000003e0: 02dc 733e faa8 01be fda6 aabd 1f18 aebd
000003f0: 3e7f 233e 16fb ee3c f293 003e 1928 2abe

fc1.bias f4 [64]
0.15724695 -0.21628827 0.2760177 0.1977769 -0.2076143 0.17983365 -0.04825538 -0.15424499
0.00394482 -0.09829494 -0.06451889 -0.09368247 0.06266046 0.35020778 -0.0020547612 -0.21548572
-0.19813824 0.42519295 -0.07858295 0.5003809 -0.0782605 0.29628342 0.09116519 0.03534411
0.41608998 -0.12736438 -0.15669921 -0.2351181 -0.3612613 -0.28108364 0.37432694 -0.15907016
-0.24065425 0.33363354 -0.045741048 0.24574259 -0.25886747 0.2355016 0.06011247 -0.13281046
-0.11772851 0.42186993 -0.054765504 0.30291367 -0.21719131 -0.26796386 -0.17138559 -0.18769827
0.25532317 -0.15151569 -0.059932217 -0.075030744 0.3665592 -0.11735852 -0.085335515 -0.24365859
0.26901072 0.024051495 0.17206955 -0.38836294 -0.18867134 0.08631894 0.29106197 0.13703501
00000000: 5805 213e ac7a 5dbe 3152 8d3e 0786 4a3e
00000010: d898 54be 5026 383e 6fa7 45bd 66f2 1dbe
00000020: 8c43 813b dc4e c9bd 7b22 84bd 98dc bfbd
00000030: 2154 803d 6f4e b33e 2ca9 06bb 4aa8 5cbe
00000040: c0e4 4abe e4b2 d93e 19f0 a0bd f618 003f
00000050: 0b47 a0bd 76b2 973e d1b4 ba3d fcc4 103d
00000060: bf09 d53e cf6b 02be c275 20be cdc2 70be
00000070: 3ef7 b8be 32ea 8fbe c8a7 bf3e 4ae3 22be
00000080: 116e 76be 04d2 aa3e f75a 3bbd f2a3 7b3e
00000090: 478a 84be 5527 713e 7e38 763d 77ff 07be
000000a0: a51b f1bd 56ff d73e cb51 60bd 8017 9b3e
000000b0: 6667 5ebe 8f32 89be b47f 2fbe fa33 40be
000000c0: b8b9 823e ee26 1bbe 7c7b 75bd b8a9 99bd
000000d0: a6ad bb3e aa59 f0bd 63c4 aebd a381 79be
000000e0: c6bb 893e a407 c53c 0033 303e 82d7 c6be
000000f0: 0f33 41be fcc7 b03d 1306 953e e852 0c3e

fc2.weight f4 [32, 64]
-0.12242704 0.1062397 -0.022920562 0.10606164 -0.0024871815 -0.09135229 -0.08088201 0.10954285
-0.040605646 -0.06846689 0.06557139 -0.102282576 0.028479405 0.11519849 -0.030227233 -0.022104738
-0.043555588 -0.09095949 0.124096304 0.12116271 0.06751997 -0.035405815 -0.007712842 0.08239944
-0.1088388 0.023020137 -0.0345461 0.10313763 -0.10712625 0.058459096 -0.08366566 0.09381103
-0.014403701 -0.051307134 0.010349062 -0.053556547 0.05290252 0.02586437 -0.014475397 -0.07357671
-0.029866146 0.009355187 0.057100307 -0.066480406 -0.030763283 0.11962472 -0.00926465 -0.04779644
-0.075020134 0.097516514 0.06406699 -0.09237261 -0.06732225 -0.10027724 -0.11782768 -0.07718445
-0.049132977 -0.013342777 -0.035803318 -0.017560914 -0.013166879 0.10605076 -0.077112615 0.04481536
-0.11067328 -0.042560425 -0.031250462 0.07544322 0.0032906802 0.043482985 -0.0741391 0.009167352
0.07722056 0.0819048 0.0042010774 -0.120026425 0.080856994 -0.081183724 -0.08876353 -0.017234411
0.015063819 0.077263 -0.08535161 -0.101623036 -0.10454961 0.08654261 -0.13713783 -0.0897341
-0.0389244 -0.023416689 -0.13638528 0.022016648 -0.0019173032 0.08529435 -0.014630496 0.018069016
-0.086363405 0.059860036 0.009414576 -0.091536105 -0.121690065 -0.08859699 -0.065339826 -0.00091247755
-0.052901726 -0.006154204 -0.021609908 -0.06234531 -0.013848245 -0.07592594 0.008130789 -0.088739656
0.04581237 -0.06280479 -0.05703819 0.073610954 0.04702525 0.060936645 0.012444066 -0.012341422
-0.04639949 0.006269225 -0.12821846 -0.015532695 0.012365952 -0.11998844 -0.011578897 -0.05583269
0.2211183 0.06576703 0.21011122 0.11042098 -0.20085776 -0.0905212 -0.095272005 -0.085582055
-0.0057640397 -0.03618862 -0.1276667 -0.11214919 0.13124669 0.05452549 0.033418994 -0.22337991
-0.032065894 0.05857434 0.024797432 0.23561636 -0.004490565 0.15839691 0.16068184 0.017699182
0.15343091 -0.005561328 0.003044186 0.05181194 -0.25163028 -0.1280945 0.23953654 0.21138807
0.04744549 0.22335654 -0.15325353 0.09398509 -0.101629525 0.18517758 0.18853477 -0.006663491
0.19543716 0.13671912 0.15606067 0.10798571 -0.11611788 -0.20146987 -0.10125579 0.05565151
0.12931164 -0.09434961 0.09216249 -0.021869617 0.2140266 -0.032185532 -0.04427624 -0.035321712
-0.029262895 -0.028962048 0.2484101 -0.115070745 -0.025294553 -0.117060676 -0.041037273 -0.10857064
-0.06334707 0.048762795 0.045253422 -0.100765206 0.052961543 -0.118435174 0.019109398 -0.11018945
-0.037835933 -0.12594905 -0.019904258 0.105588175 -0.09041838 0.052514013 0.026742557 -0.032809403
-0.027579486 -0.091962144 -0.12349684 -0.07746998 0.05650814 -0.119202405 0.022934362 -0.009071246
0.0013838386 -0.0004799664 0.080088116 0.09152282 -0.082608074 0.10451676 -0.04305708 -0.06208077
0.06144087 0.071926214 -0.11602174 0.014867026 -0.123275645 0.003759995 -0.04027134 -0.067119375
-0.08151141 -0.062098 0.061411586 0.004082271 -0.0502048 -0.08966672 0.11050856 -0.005619196
0.011731437 -0.026435008 -0.057357475 -0.071411535 0.10215285 -0.017411683 0.075509794 0.020051774
-0.015871352 0.07753539 0.09469928 -0.012596384 -0.055241235 0.115619555 -0.08814247 -0.10187331
00000000: 07bb fabd 3394 d93d e7c3 bbbc d836 d93d
00000010: fbff 22bb e916 bbbd 78a5 a5bd 0058 e03d
00000020: 1b52 26bd 5e38 8cbd 4b4a 863d 8779 d1bd
00000030: a44d e93c 30ed eb3d 1a9f f7bc ff14 b5bc
00000040: 5867 32bd f848 babd 3426 fe3d 2824 f83d
00000050: e947 8a3d b005 11bd 02bc fcbb 0ac1 a83d
00000060: e0e6 debd ba94 bc3c 3680 0dbd d239 d33d
00000070: 0265 dbbd ce72 6f3d e758 abbd ff1f c03d
00000080: 80fd 6bbc 6e27 52bd 1d8f 293c 1c5e 5bbd
00000090: 50b0 583d 84e1 d33c 372a 6dbc 63af 96bd
000000a0: d9a9 f4bc 8046 193c 03e2 693d e126 88bd
000000b0: 4803 fcbc cefd f43d c2ca 17bc 33c6 43bd
000000c0: 28a4 99bd bdb6 c73d 8e35 833d da2d bdbd
000000d0: 3fe0 89bd 275e cdbd a44f f1bd e212 9ebd
000000e0: a93f 49bd aa9b 5abc 80a6 12bd e8db 8fbc
000000f0: e5b9 57bc 2431 d93d 38ed 9dbd 5090 373d
00000100: aca8 e2bd d753 2ebd 7c00 00bd fa81 9a3d
00000110: 74a8 573b 371b 323d 3ed6 97bd a932 163c
00000120: d025 9e3d b4bd a73d 31a9 893b 6ad0 f5bd
00000130: 5a98 a53d a743 a6bd a7c9 b5bd 2e2f 8dbc
00000140: 3cce 763c 103c 9e3d d3cc aebd bd1f d0bd
00000150: 1b1e d6bd 403d b13d dc6d 0cbe 83c6 b7bd
00000160: 316f 1fbd 5bd4 bfbc 95a8 0bbe 425c b43c
00000170: 054e fbba ceae ae3d bfb4 6fbc 7905 943c
00000180: 4cdf b0bd cc2f 753d 983f 1a3c 4877 bbbd
00000190: a438 f9bd 5772 b5bd e3d0 85bd 5533 6fba
000001a0: 7baf 58bd 34a9 c9bb 4307 b1bc cc5d 7fbd
000001b0: c0e3 62bc 0f7f 9bbd 0037 053c 23bd b5bd
000001c0: c0a5 3b3d cc9f 80bd e1a0 69bd 57c1 963d
000001d0: 8c9d 403d b498 793d 32e2 4b3c ad33 4abc
000001e0: 640d 3ebd 126e cd3b b34b 03be d87c 7ebc
000001f0: 909a 4a3c 80bc f5bd 6ab5 3dbc d2b0 64bd
00000200: d66c 623e ddb0 863d 6527 573e 6524 e23d
00000210: a8ad 4dbe 2e63 b9bd f81d c3bd a545 afbd
00000220: 45e0 bcbb 853a 14bd 0fbb 02be 79ae e5bd
00000230: 8865 063e 1f56 5f3d 5be2 083d b4bd 64be
00000240: 8757 03bd a6eb 6f3d fc23 cb3c 6a45 713e
00000250: 9725 93bb cd32 223e c889 243e e0fd 903c
00000260: fe1c 1d3e cd3b b6bb f780 473b c238 543d
00000270: afd5 80be 342b 03be 1149 753e 1d76 583e
00000280: 3456 423d 94b7 643e 7eee 1cbe 417b c03d
00000290: 2423 d0bd 319f 3d3e 420f 413e 6a59 dabb
000002a0: ae20 483e 1900 0c3e 5ece 1f3e 9d27 dd3d
000002b0: 36cf edbd 1e4e 4ebe 325f cfbd d6f2 633d
000002c0: 456a 043e 5e3a c1bd b0bf bc3d e927 b3bc
000002d0: ca29 5b3e fad4 03bd 015b 35bd 80ad 10bd
000002e0: bdb8 efbc d141 edbc 385f 7e3e 36aa ebbd
000002f0: 8636 cfbc 82bd efbd b316 28bd 495a debd
00000300: 1cbc 81bd 7fbb 473d a75b 393d fd5d cebd
00000310: 34ee 583d 248e f2bd 508b 9c3c 02ab e1bd
00000320: daf9 1abd caf8 00be 410e a3bc 9d3e d83d
00000330: 462d b9bd ef18 573d 3513 db3c 2763 06bd
00000340: 60ee e1bc a656 bcbd e9eb fcbd 95a8 9ebd
00000350: 1475 673d 6420 f4bd d8e0 bb3c 909f 14bc
00000360: eb61 b53a 00a4 fbb9 3d05 a43d 5170 bb3d
00000370: 6c2e a9bd e20c d63d 9f5c 30bd 6848 7ebd
00000380: 6ca9 7b3d 0d4e 933d ce9c edbd d494 733c
00000390: f177 fcbd 406a 763b 90f3 24bd e275 89bd
000003a0: 74ef a6bd 795a 7ebd b78a 7b3d 92c4 853b
000003b0: 8ca3 4dbd 2fa3 b7bd 5052 e23d 3c21 b8bb
000003c0: 3735 403c 3b8e d8bc acef 6abd 3640 92bd
000003d0: 8335 d13d f2a2 8ebc e1a4 9a3d 9e43 a43c
000003e0: a304 82bc e0ca 9e3d b2f1 c13d 1061 4ebc
000003f0: a244 62bd f2c9 ec3d 0a84 b4bd f4a2 d0bd

fc2.bias f4 [32]
0.06566233 0.0046232073 0.0008125241 0.042405024 -0.31273377 -0.007545367 0.021149376 0.1340146
0.021249587 0.011478671 -0.100550316 0.122392885 -0.1650149 -0.12699692 -0.031286575 -0.10855026
-0.17404975 0.13580726 -0.13083427 0.19144645 0.110291116 0.019774998 -0.07598263 0.012965973
-0.0026022883 0.22918923 -0.08427587 0.13199644 -0.054145128 -0.11002915 -0.021449408 0.21534793
00000000: f979 863d 467e 973b 92ff 543a e4b0 2d3d
00000010: a41e a0be 203f f7bb 7541 ad3c 203b 093e
00000020: 9d13 ae3c 0911 3c3c 53ed cdbd 1fa9 fa3d
00000030: aaf9 28be 7b0b 02be 5a26 00bd 994f debd
00000040: 193a 32be 0f11 0b3e 6bf9 05be 8a0a 443e
00000050: 4fe0 e13d 2dff a13c c89c 9bbd 3b6f 543c
00000060: 278b 2abb 95b0 6a3e d498 acbd 132a 073e
00000070: 48c7 5dbd f756 e1bd abb6 afbc 2b84 5c3e

fc3.weight f4 [16, 32]
-0.1401443 -0.030376231 -0.2959492 0.13344237 -0.4325482 0.1257094 -0.08864392 -0.3710213
-0.12066773 -0.08741164 0.060784902 0.1103164 -0.15432827 -0.034360018 0.20842367 0.07746576
-0.34777004 0.120733894 -0.04634652 0.16438478 -0.07547761 0.2021758 -0.059983913 0.21177474
0.1562752 -0.07003847 0.13347833 0.17380875 -0.07391553 -0.1686149 0.12998082 -0.33848387
-0.13646376 0.02396013 -0.016199727 0.020299718 -0.3081377 0.12822996 -0.0207309 -0.44293234
0.07596945 0.107224055 0.034771085 0.14906915 0.15581906 0.13602085 0.24326257 -0.11171108
-0.31762722 0.14482734 -0.05718231 0.04904523 0.07950018 -0.016753621 -0.07259259 0.1992686
-0.17448969 0.21449003 -0.16941561 -0.07608136 0.15030481 0.08985078 -0.06481997 -0.34540612
0.15962382 -0.12070408 0.24983312 -0.10771628 0.363428 -0.16475148 0.0009037405 0.366373
-0.0080289785 0.15600275 -0.01614263 0.0036110822 0.23047373 0.06460364 0.16440287 -0.10124726
0.34807375 0.13257617 -0.08198683 -0.110837705 -0.074221 0.09413741 -0.051608674 0.091346264
0.12765135 -0.13511272 0.0844181 -0.053688187 -0.0015548443 -0.1384201 -0.126497 0.39682075
-0.07857384 0.10749693 -0.1456194 0.16272528 0.054980114 0.1433488 -0.0007877052 0.013487026
0.056709632 0.12282543 -0.049057618 0.03356059 0.0961415 0.14861949 -0.14813559 0.0924315
-0.031335443 -0.10407039 -0.01916562 0.00020247698 0.08914386 0.022259057 -0.14885925 0.06099072
-0.03190662 -0.06949229 0.17258687 -0.09954483 0.11712088 0.0860887 -0.077422895 0.038379997
0.12264917 -0.013732402 0.349867 0.14637145 -0.14063169 -0.00019545853 0.0010991384 0.26424786
0.03973882 -0.13888311 0.0017799012 0.10560539 0.046976637 -0.046479747 -0.06568759 0.11665989
-0.2354961 -0.006997763 0.1288655 -0.09728154 -0.15224397 -0.124754824 0.095677376 0.03385346
-0.12189916 0.03354736 -0.16382478 -0.00048740744 0.030007057 0.1250173 -0.110272095 0.32727394
0.086875156 0.08727822 -0.023202784 -0.1075679 -0.24047041 -0.07783467 -0.10296065 -0.24314904
-0.15327181 -0.08956171 0.06440049 0.19975801 0.031171558 0.08174977 0.0022785347 -0.028195715
-0.4402928 0.06269582 0.0110350875 0.13182443 0.08658369 0.027844537 -0.030912986 -0.005113848
0.17224108 0.096921 -0.15947168 0.1561731 0.12367444 0.075959794 0.15218093 -0.38472646
0.053186327 -0.009036606 -0.17970873 -0.17261776 0.051962342 0.040534034 0.110914156 -0.08947492
-0.042296022 0.1737387 0.11202015 0.03556104 0.16864367 -0.12755533 0.037300188 0.14273424
-0.15180926 -0.16266556 0.04818946 0.08729533 -0.11254013 0.15320837 0.08747293 0.08921456
0.070233256 -0.05282808 -0.07287135 -0.12211919 0.075533256 -0.07264584 0.0260803 -0.07313882
0.10195014 -0.035415445 0.4445379 -0.000794 -0.22559042 -0.1474603 0.13747977 0.49994865
-0.019993197 -0.01259028 -0.0725838 -0.09052545 -0.077359006 -0.13172777 -0.15953124 0.023485888
-0.22480716 -0.05765016 0.078937694 0.15324488 -0.12923448 -0.041860733 -0.07196305 0.089906946
-0.09698181 0.23445034 -0.16866069 0.07060195 0.111998074 0.019617822 -0.13582498 0.31692508
00000000: fd81 0fbe 93d7 f8bc a786 97be 1ea5 083e
00000010: f576 ddbe f7b9 003e f28a b5bd 81f6 bdbe
00000020: a520 f7bd e004 b3bd 97f9 783d 91ed e13d
00000030: 3b08 1ebe 17bd 0cbd 046d 553e 5ea6 9e3d
00000040: ea0e b2be 5543 f73d d9d5 3dbd 7c54 283e
00000050: 0194 9abd 2c07 4f3e b1b1 75bd 7adb 583e
00000060: 9b06 203e 5470 8fbd 8bae 083e ecfa 313e
00000070: 0761 97bd 62a9 2cbe b119 053e c24d adbe
00000080: 28bd 0bbe 0948 c43c 4ab5 84bc 984b a63c
00000090: 3ac4 9dbe b74e 033e d9d3 a9bc 07c8 e2be
000000a0: df95 9b3d 4998 db3d 206c 0e3d 95a5 183e
000000b0: 088f 1f3e 0d49 0b3e d319 793e c7c8 e4bd
000000c0: 09a0 a2be 9e4d 143e ff37 6abd a7e3 483d
000000d0: fed0 a23d e43e 89bc 6cab 94bd 110d 4c3e
000000e0: 6dad 32be 46a3 5b3e 497b 2dbe 8bd0 9bbd
000000f0: 81e9 193e b003 b83d 55c0 84bd 12d9 b0be
00000100: 6d74 233e b333 f7bd 41d4 7f3e 5a9a dcbd
00000110: 3c13 ba3e 9db4 28be 00e9 6c3a 3e95 bb3e
00000120: fa8b 03bc 2fbf 1f3e 8c3d 84bc e8a7 6c3b
00000130: 4e01 6c3e ea4e 843d 3a59 283e b95a cfbd
00000140: b936 b23e 0cc2 073e b6e8 a7bd e1fe e2bd
00000150: 2e01 98bd 1dcb c03d 9e63 53bd c013 bb3d
00000160: 09b7 023e fd5a 0abe 66e3 ac3d 25e8 5bbd
00000170: ebcb cbba 00be 0dbe 6e88 01be 172c cb3e
00000180: 52eb a0bd 5a27 dc3d 411d 15be 75a1 263e
00000190: d432 613d 07ca 123e 007e 4eba b0f8 5c3c
000001a0: 5c48 683d e68b fb3d a4f0 48bd d476 093d
000001b0: d6e5 c43d b52f 183e dbb0 17be ba4c bd3d
000001c0: 9859 00bd db22 d5bd 3801 9dbc 0050 5439
000001d0: 0e91 b63d a058 b63c 8f6e 18be 68d1 793d
000001e0: 84b0 02bd f951 8ebd 9dba 303e 29de cbbd
000001f0: 12dd ef3d 464f b03d e58f 9ebd 5834 1d3d
00000200: 7d2f fb3d defd 60bc c421 b33e 66e2 153e
00000210: c101 10be 00f4 4cb9 f710 903a 7f4b 873e
00000220: 2cc5 223d 6037 0ebe 934b e93a a447 d83d
00000230: 936a 403d 8c61 3ebd 3787 86bd 61eb ee3d
00000240: e425 71be 7e4d e5bb 51f5 033e 8b3b c7bd
00000250: d8e5 1bbe 757f ffbd 80f2 c33d eda9 0a3d
00000260: 44a6 f9bd f568 093d afc1 27be b88a ffb9
00000270: 5cd1 f53c 8904 003e 56d6 e1bd 7390 a73e
00000280: 9aeb b13d ecbe b23d c413 bebc 8f4c dcbd
00000290: e03d 76be c967 9fbd 09dd d2bd 10fc 78be
000002a0: 49f3 1cbe 216c b7bd 67e4 833d 5d8d 4c3e
000002b0: 7f5b ff3c 6c6c a73d 7853 153b b3fa e6bc
000002c0: 0f6e e1be ab66 803d 83cc 343c fcfc 063e
000002d0: ca52 b13d 3a1a e43c 3b3d fdbc 1192 a7bb
000002e0: f75f 303e 847e c63d 8b4c 23be d7eb 1f3e
000002f0: 0649 fd3d cf90 9b3d 51d5 1b3e defa c4be
00000300: e8d9 593d 460e 14bc 9105 38be b6c2 30be
00000310: 77d6 543d 0407 263d f626 e33d a03e b7bd
00000320: 983e 2dbd 8fe8 313e d26a e53d 74a8 113d
00000330: edb0 2c3e dd9d 02be 15c8 183d ed28 123e
00000340: e373 1bbe cd91 26be 5062 453d e5c7 b23d
00000350: 717b e6bd a8e2 1c3e 0225 b33d 20b6 b63d
00000360: 74d6 8f3d 4262 58bd 933d 95bd a019 fabd
00000370: 2eb1 9a3d 58c7 94bd 5aa6 d53c cec9 95bd
00000380: 3ccb d03d c90f 11bd 799a e33e 7024 50ba
00000390: 2d01 67be d5ff 16be 7fc7 0c3e 45f9 ff3e
000003a0: c6c8 a3bc 7647 4ebc d1a6 94bd 6865 b9bd
000003b0: 666e 9ebd a5e3 06be 285c 23be 7a65 c03c
000003c0: d933 66be 9322 6cbd 16aa a13d 3aec 1c3e
000003d0: 0b56 04be 2976 2bbd 5d61 93bd 2221 b83d
000003e0: 669e c6bd c013 703e 63b5 2cbe c197 903d
000003f0: 3f5f e53d 8eb5 a03c b415 0bbe 0144 a23e

fc3.bias f4 [16]
0.24195792 0.11512761 -0.14479895 -0.097826645 0.15197577 0.064028434 -0.15268314 0.14796676
-0.027442945 0.08197176 0.05978815 -0.088969074 0.0693567 0.09049577 0.29063433 0.036709666
00000000: d1c3 773e 06c8 eb3d 2d46 14be 5659 c8bd
00000010: 899f 1b3e 5721 833d f858 1cbe 9984 173e
00000020: 07d0 e0bc cfe0 a73d 6be4 743d 6b35 b6bd
00000030: e30a 8e3d d955 b93d 06ce 943e e05c 163d

out.weight f4 [1, 16]
0.36288208 0.23915182 -0.33362478 -0.09265521 -0.2603545 0.33787844 0.16748649 -0.33736783
-0.42577875 -0.1269918 0.24108717 -0.19352433 -0.22218235 -0.037169326 0.14417931 0.10873103
00000000: aecb b93e 37e4 743e ded0 aabe 04c2 bdbd
00000010: 2f4d 85be 67fe ac3e 9481 2b3e 7abb acbe
00000020: acff d9be 230a 02be 8edf 763e 3e2b 46be
00000030: c583 63be dd3e 18bd bea3 133e 60ae de3d
