trained_models/model_distortion.pth (torch, 10786 bytes, 6 tensors)

fc1.weight f4 [32, 27]
0	0x3e04424d	0.12915917
1	0xbe06fa7c	-0.1318149
2	0xbeccc787	-0.39995977
3	0xbd9fc427	-0.07801085
4	0x3fc9e248	1.577218
5	0x3cc09f00	0.023513317
6	0x3da378aa	0.07981999
7	0x3db75999	0.08952636
8	0xbece2611	-0.40263417
9	0xbf26e693	-0.6519558
10	0x3d872e22	0.06600596
11	0x3def84c6	0.116952464
12	0xbe7c6ba4	-0.24650437
13	0x3ddac20c	0.10681543
14	0xbf015659	-0.5052238
15	0x3e000ff9	0.12506093
16	0xbdd86cbf	-0.10567617
17	0x3ee80e8e	0.45323604
18	0x3e8f740a	0.28018218
19	0xbf56e5e5	-0.8394454
20	0xbe2c0116	-0.16797289
21	0xbe33cbdc	-0.17558235
22	0xbeebaa80	-0.4602852
23	0x3e7e627a	0.24842253
24	0xbe118723	-0.14211707
25	0x3ea2ed5c	0.31821716
26	0xbecc67e7	-0.3992302
27	0x3dbbff9a	0.091796115
28	0xbd7aea78	-0.061258763
29	0xbe87b854	-0.2650782
30	0xbeef885a	-0.46783715
31	0x3f8d1942	1.1023333
32	0x3d223bf0	0.039607942
33	0xbe031fb1	-0.12805058
34	0xbf54ad15	-0.830766
35	0x3c282333	0.010262298
36	0xbeaa3c2d	-0.33249035
37	0x3da983b2	0.08277072
38	0xbd73314c	-0.059373185
39	0x3f389881	0.721077
40	0xbe6d1505	-0.2315255
41	0xbea4db93	-0.32198772
42	0xbdccbf3d	-0.09997413
43	0x3e02fded	0.12792177
44	0x3f60ee04	0.87863183
45	0x3e1bb710	0.15206552
46	0xbe4cd02d	-0.20001288
47	0x3cf6ff38	0.030150995
48	0xbac4ec80	-0.0015024096
49	0xbe164fac	-0.1467883
50	0x3cd88107	0.026428713
51	0xbf53961d	-0.8265093
52	0x3efb0083	0.49023828
53	0x3e2a7af0	0.1664846
54	0xbd7f8ebc	-0.06239198
55	0xbd1d2234	-0.038362697
56	0xbea47cbc	-0.32126415
57	0x3dd634e0	0.10459304
58	0xc001c12b	-2.027415
59	0x3e3e2e75	0.1857241
60	0xbbbdc420	-0.005791202
61	0xbd2c2c0d	-0.042034198
62	0x3ceac9d4	0.028660692
63	0x3ecbd3fe	0.39810175
64	0x3de62c82	0.11238958
65	0x3e19be57	0.15014015
66	0xbda0fc4e	-0.07860623
67	0xbdf9bece	-0.12194596
68	0x3f14b562	0.5808927
69	0xbe246022	-0.16052297
70	0x3dd6307e	0.10458468
71	0x3f3a4d55	0.7277425
72	0x3ce9ee9c	0.02855616
73	0x3db9c9e7	0.09071713
74	0x3d0ea504	0.03482534
75	0x3dcc2eaa	0.09969838
76	0xbe84109e	-0.25793928
77	0xbed98978	-0.42487693
78	0xbe4ef22f	-0.20209573
79	0x3e66b803	0.22531132
80	0x3eba3e90	0.36375856
81	0xbd02d7fc	-0.03194426
82	0x3d2b69ac	0.041848823
83	0xbe5d6d6d	-0.21623774
84	0x3f0c31a2	0.54763234
85	0xbff39759	-1.9030563
86	0x3c0268d0	0.00795956
87	0x3e01ece1	0.12688018
88	0x3e5f48ac	0.21805066
89	0xbea8ae65	-0.32945552
90	0x3de36aad	0.11104331
91	0x3d3e18f4	0.046410516
92	0xbcbc8398	-0.023011968
93	0x3db641c9	0.08899266
94	0xbea08bbc	-0.3135661
95	0x3e194fa0	0.14971781
96	0x3ce81c28	0.028333738
97	0x3e2b18b1	0.16708638
98	0xbcc152a6	-0.02359898
99	0x3f37c427	0.7178368
100	0x3eff1031	0.4981704
101	0xbd05c05c	-0.03265415
102	0xbe440705	-0.19143303
103	0xbf0f62d5	-0.5601018
104	0xbe83f678	-0.25773978
105	0xbe0ffe07	-0.14061747
106	0x3e8a6255	0.27028146
107	0x3dca15b0	0.09867418
108	0xba06a200	-0.0005135834
109	0xbdd5010d	-0.10400591
110	0xbe8f48e5	-0.27985302
111	0xbf4879a9	-0.7831064
112	0x3f649b2e	0.89299285
113	0x3da0e44e	0.07856046
114	0x3e129ea5	0.1431833
115	0xbd53f836	-0.051750384
116	0xbec2046b	-0.37893996
117	0xbf209aa4	-0.6273596
118	0x3d85243e	0.06501053
119	0x3ce8a4e8	0.028398946
120	0xbf855af0	-1.0418377
121	0xbee71ad1	-0.45137647
122	0xbda66e9a	-0.08126564
123	0x3d1c6d78	0.038190335
124	0x3dc84bc2	0.09780075
125	0xbd9b8e5d	-0.07595513
126	0xbe7e36d9	-0.2482561
127	0xbf111046	-0.56665456
128	0xbc94ea60	-0.018178165
129	0x3d01451c	0.03156005
130	0xbf3304ec	-0.69929385
131	0xbe3df361	-0.18549873
132	0xbdff65d5	-0.12470595
133	0x3ed5ec94	0.41782057
134	0xbe63deae	-0.22252914
135	0x3d961c96	0.07329671
136	0x3e263a3f	0.16233157
137	0xbe880e37	-0.26573345
138	0x3f3f1a9e	0.7464999
139	0x3f90a662	1.1300776
140	0xbe2f16cc	-0.1709854
141	0xbd906e32	-0.07052268
142	0x3ea86da6	0.32896155
143	0x3f5842a3	0.8447668
144	0x3db8ee10	0.09029782
145	0x3c544da0	0.01295796
146	0x3d9440a2	0.0723889
147	0xbeb732cd	-0.35780945
148	0xbf92516f	-1.1431102
149	0xbda0a824	-0.0784457
150	0x3e3bb6dd	0.18331476
151	0x3d8dbc8a	0.069207266
152	0x3f211ebe	0.62937534
153	0xbf9bf9b2	-1.2185576
154	0x3eaeed1e	0.3416528
155	0x3d09aa78	0.033609837
156	0x3d81b74e	0.06333791
157	0xbd9b95bd	-0.0759692
158	0x3f671441	0.9026528
159	0x3ca04f69	0.019569116
160	0x3c143d9c	0.009047892
161	0xbef4e5cc	-0.4783157
162	0x3bd92760	0.0066270083
163	0xbdf6dff9	-0.12054438
164	0xbe519445	-0.20466717
165	0x3f169391	0.5881892
166	0x3f9e6057	1.237315
167	0x3dc36baa	0.0954202
168	0x3d632d30	0.055463016
169	0xbdf51ed4	-0.119687706
170	0x3ebaeee9	0.365104
171	0xbcfee4ae	-0.031114902
172	0x3e293035	0.16522296
173	0xbe3da943	-0.185216
174	0x3ddbf43b	0.10739943
175	0x3e95833c	0.29201686
176	0xbe2e4861	-0.17019798
177	0xbc7a7740	-0.0152872205
178	0x3c1bf670	0.0095192045
179	0x3ece4dac	0.40293634
180	0xbe5194dd	-0.20466943
181	0x3e5a04f9	0.2129096
182	0xbe14e48d	-0.1454031
183	0xbde6530d	-0.112463094
184	0xbf051152	-0.51979554
185	0x3e46ccb6	0.19414029
186	0xbea6211a	-0.3244713
187	0xbf0170df	-0.5056285
188	0x3d263191	0.040574614
189	0x3e042a25	0.12906702
190	0xbd8ac283	-0.067753814
191	0xbe2246cc	-0.1584732
192	0xbd4ed5ed	-0.050496984
193	0xbff2e6bf	-1.8976668
194	0xbc029020	-0.007968932
195	0x3e1ec4a7	0.15504704
196	0xbe2d4828	-0.16922057
197	0x3d835255	0.06412188
198	0x3e9cc250	0.30617
199	0x3da096ce	0.07841264
200	0xbb92fee0	-0.00448595
201	0xbf099a2c	-0.5375087
202	0xbeaa86ef	-0.3330607
203	0x3f15bcb5	0.5849107
204	0x3e247133	0.16058807
205	0x3c690330	0.014221951
206	0x3e947eae	0.290029
207	0xbded5065	-0.115876
208	0x3f1bb9d0	0.608304
209	0x3ddb3b2e	0.10704647
210	0xbdedba68	-0.1160782
211	0x3e4ab305	0.19794853
212	0x3eb6579a	0.3561371
213	0x3ee1be6a	0.44090587
214	0x3e8188ad	0.25299588
215	0x3c81c9b1	0.015843244
216	0xbe1ce5e7	-0.15322076
217	0xbd139588	-0.036031276
218	0xbda12bad	-0.078696586
219	0xbe7c9d0c	-0.24669284
220	0xbfbfe9de	-1.4993246
221	0xbd9936d5	-0.074811615
222	0xbc320080	-0.010864377
223	0x3e581576	0.21101937
224	0x3e983ef2	0.29735523
225	0x3e9fa137	0.31177685
226	0x3e38680f	0.18008445
227	0x3e260dd3	0.16216211
228	0x3ef6fda5	0.4824039
229	0x3d408d2a	0.047009625
230	0x3f364d09	0.71211296
231	0xbe050fbe	-0.12994286
232	0xbe217363	-0.15766673
233	0xbede9a0c	-0.43476903
234	0xbee3baac	-0.44478357
235	0xbd9811a0	-0.07425237
236	0xbd252170	-0.04031509
237	0xbd271a44	-0.040796533
238	0x3f68a49e	0.90876186
239	0x3f03370a	0.5125586
240	0x3f83260e	1.0245988
241	0x3ebead00	0.37241364
242	0xbebe85ef	-0.37211558
243	0x3d65c178	0.05609271
244	0x3db0cc52	0.08632721
245	0xbe1d40da	-0.1535677
246	0x3f0478b3	0.5174667
247	0x3e88cd7f	0.2671928
248	0x3def2426	0.11676817
249	0xbe39f70e	-0.1816065
250	0xbda6d7a5	-0.081466
251	0xbf67c4fe	-0.9053496
252	0x3f4ba193	0.7954342
253	0xbdccf5cf	-0.10007822
254	0x3e1d973d	0.15389724
255	0x3e7d28ef	0.24722646

fc1.bias f4 [32]
0	0x3f1cd04a	0.61255324
1	0x3e1b5257	0.15168129
2	0xbea2d203	-0.3180085
3	0xbd3627b3	-0.044471454
4	0xbf2c5e08	-0.6733098
5	0xbf635f0d	-0.8881691
6	0x3e958cdb	0.29209027
7	0x3e850447	0.25979826
8	0xbe97c10f	-0.2963948
9	0xbf5a8715	-0.8536237
10	0xbe4a8d9f	-0.19780587
11	0xbebf1abd	-0.37325087
12	0xbf602fa9	-0.87572724
13	0xbf34e0eb	-0.706557
14	0xbf36d15b	-0.714132
15	0x3e348094	0.17627174
16	0xbe041160	-0.12897253
17	0xbe8f5e5a	-0.28001672
18	0xbf143bd0	-0.57903767
19	0xbf25896d	-0.6466282
20	0xbfa8c4a5	-1.3185011
21	0xbed4e761	-0.41582778
22	0xbeb2757e	-0.34855264
23	0xbef9f72f	-0.488214
24	0xbe34d25c	-0.1765837
25	0x3e1da452	0.15394714
26	0xbf0a1402	-0.5393678
27	0xbf7107d4	-0.9415257
28	0xbf42f3a8	-0.7615304
29	0xbc0dfb1f	-0.008665829
30	0xbfb9efa4	-1.4526258
31	0x3e470ca5	0.19438417

fc2.weight f4 [32, 32]
0	0xbf214904	-0.6300204
1	0xbf6d6faa	-0.9274851
2	0x3f628804	0.88488793
3	0x3d79067c	0.0607972
4	0xbe9ba331	-0.30397943
5	0x3c349268	0.011021234
6	0xbe27ba1c	-0.16379589
7	0x3eb0ae38	0.34507918
8	0x3eb47160	0.35242748
9	0xbe144db4	-0.14482766
10	0x3e912d1f	0.28354737
11	0xbd6d7865	-0.057976145
12	0x3f807288	1.0034952
13	0x3eca80ff	0.3955154
14	0xbec41e88	-0.38304543
15	0x3f0abbf2	0.5419303
16	0xbe2ca809	-0.16860975
17	0x3f72b3db	0.9480569
18	0xbf26f179	-0.6521221
19	0xbf4be87f	-0.79651636
20	0xbf62f292	-0.8865138
21	0xbf2d03e6	-0.67584074
22	0xbf28c3cc	-0.6592376
23	0x3d80576d	0.06266675
24	0xbd798414	-0.060916975
25	0xbf0964dc	-0.53669524
26	0xbf2d47bd	-0.6768759
27	0xbeb2242c	-0.34793222
28	0x3f1ef818	0.6209731
29	0xbf022c3b	-0.5084874
30	0xbf23b83e	-0.63953006
31	0x3e3c137e	0.1836681
32	0xbec0cdb5	-0.37656942
33	0x3e69cea7	0.22832738
34	0x3ee4785c	0.44623077
35	0xbfafa704	-1.3722844
36	0x3ec37980	0.38178635
37	0xbd3127c9	-0.043250833
38	0x3ed5c9c1	0.4175549
39	0xbed55bdb	-0.41671643
40	0xbf5da448	-0.865788
41	0xbf200f4f	-0.6252336
42	0xbf349b87	-0.70549816
43	0xbeeba269	-0.46022347
44	0x3e406147	0.18787108
45	0x3ec1305b	0.37732205
46	0x3e90a10a	0.28247863
47	0xbe066d7f	-0.13127707
48	0xbf1a8b18	-0.6036849
49	0xbedb995c	-0.4289044
50	0xbf504bf0	-0.8136587
51	0xbf4271b6	-0.7595476
52	0x3f30ded5	0.69090015
53	0x3f257ab8	0.6464038
54	0xbf81da38	-1.014472
55	0xbcc51892	-0.024059568
56	0x3f355b1f	0.70842165
57	0xbf0efd89	-0.55855614
58	0xbf0d0f49	-0.5510145
59	0xbe5738b4	-0.21017724
60	0xbf510697	-0.8165068
61	0xbde39052	-0.11111511
62	0xbf5f884e	-0.8731736
63	0x3f23dedc	0.6401193
64	0xbe062498	-0.13099897
65	0xbd77ce8d	-0.060499717
66	0xbd6f4c09	-0.058422122
67	0xbd34c064	-0.04412879
68	0xbe06d3d6	-0.13166746
69	0xbbd28995	-0.0064250925
70	0xbe91a07f	-0.2844276
71	0x3d61b90f	0.055108126
72	0xbd132b7b	-0.035930138
73	0xbe1a31ad	-0.15058012
74	0xbdad833b	-0.08472296
75	0xbe160472	-0.14650133
76	0x39d0325b	0.0003971037
77	0x3d08094b	0.033211987
78	0xbd80079b	-0.06251451
79	0xbe0b9718	-0.13631856
80	0xbd1f2f99	-0.038863752
81	0x3dbb589e	0.09147762
82	0x3d076661	0.03305662
83	0xbe70a5a1	-0.23500682
84	0xbde60b7f	-0.112326615
85	0x3d0d6f5c	0.03453003
86	0xbe69018d	-0.22754498
87	0xbdf8d268	-0.12149507
88	0x3cecc6cc	0.028903387
89	0x3dbc36f6	0.091901705
90	0xbdc6799b	-0.09691163
91	0xbe1ddc3e	-0.15416047
92	0xbbe4a20f	-0.0069773267
93	0xbd7b97dc	-0.06142412
94	0xbd8090ca	-0.06277616
95	0xbda52b9c	-0.080649585
96	0x3f22cd93	0.6359493
97	0xbd16d6b3	-0.036825847
98	0xbf671a9d	-0.90274984
99	0xbfd28af5	-1.6448656
100	0x3f033a17	0.51260513
101	0x3d2e9291	0.042620245
102	0xbd120065	-0.035644908
103	0xbf855ebf	-1.0419539
104	0x3f1709d1	0.58999354
105	0xbebc42a5	-0.36769596
106	0x3f03edf3	0.51534957
107	0x3fa06ce3	1.253323
108	0xbf0da96d	-0.5533665
109	0xbd5b75ea	-0.05357925
110	0xbefa3b9c	-0.48873603
111	0x3d82e98b	0.06392201
112	0xba9f453e	-0.0012151373
113	0x3f2bc57f	0.6709823
114	0x3f69143e	0.9104651
115	0x3e1375b2	0.14400366
116	0x3d0253a8	0.031818062
117	0x3f5eff31	0.8710814
118	0x3e429f61	0.1900611
119	0xbee24951	-0.4419656
120	0xbf95dc65	-1.1707884
121	0xbe6c92c8	-0.23102868
122	0xbeca85f2	-0.39555317
123	0xbeaca679	-0.3372076
124	0x3d205c62	0.039150603
125	0x3e0605b1	0.13088109
126	0xbd3b9bb3	-0.045802783
127	0xbfaf7118	-1.3706388
128	0x3cc08615	0.023501435
129	0xbcb0bde9	-0.021574931
130	0xbc27871c	-0.010225084
131	0xbca73efe	-0.02041578
132	0xbd0d35f1	-0.03447527
133	0xbd19b923	-0.037530076
134	0xbe8ba53c	-0.272745
135	0xbe10bc91	-0.14134432
136	0xbc9a4b4b	-0.01883473
137	0xbc8c3e39	-0.017119514
138	0xbdfda4b3	-0.123849295
139	0xbb8b33d1	-0.0042481204
140	0xbde3ddf2	-0.11126317
141	0xbd8d951b	-0.06913205
142	0xbe20e534	-0.15712434
143	0xbe82f094	-0.25574172
144	0x3dc50647	0.09620338
145	0xbd8de02c	-0.06927523
146	0xbe86a6e7	-0.2629921
147	0xbdc2cee4	-0.095121175
148	0xbd9d0b4c	-0.0766817
149	0xbe385731	-0.18002011
150	0xbd81af56	-0.06332271
151	0x3ba82423	0.005131261
152	0xbe3c4872	-0.1838701
153	0x3cefb995	0.029263297
154	0x3d9af9dc	0.07567188
155	0xbe065ad1	-0.13120581
156	0xbe2b02df	-0.16700314
157	0xbd8b2ebc	-0.06796023
158	0xbdab58fd	-0.083665825
159	0xbe0163c9	-0.12635721
160	0x3c917993	0.017758166
161	0xbe1786d8	-0.14797533
162	0xbe0c1053	-0.13678102
163	0xbe1d9e3b	-0.15392391
164	0xbe2b0cae	-0.16704056
165	0xbe77f56c	-0.24214715
166	0xbdd88c48	-0.105736315
167	0xbe1d8574	-0.1538294
168	0xbe253cd7	-0.1613649
169	0xbdc9025f	-0.098149054
170	0xbdd79c2b	-0.105278336
171	0x3c760db7	0.015017918
172	0xbd9b6558	-0.07587689
173	0xbe813a22	-0.25239664
174	0xbe346528	-0.17616713
175	0xbe0ee588	-0.13954747
176	0xbd846b2e	-0.064657554
177	0xbd70a3e0	-0.058750033
178	0xbd8b7f84	-0.06811431
179	0x3d630ef9	0.0554342
180	0xbe501111	-0.2031901
181	0x3ca902e6	0.020631265
182	0xbe5f7898	-0.21823347
183	0xbe1f5728	-0.15560591
184	0xbe5a6e0c	-0.21331042
185	0xbe9d4c98	-0.307225
186	0xbdc44afc	-0.09584615
187	0xbe3dafdd	-0.18524118
188	0xbdbe336a	-0.0928715
189	0xbe4c4737	-0.19949041
190	0x3becb806	0.0072240857
191	0xbe8abe22	-0.27098185
192	0xbdf7a9b3	-0.120929144
193	0xbe2a63aa	-0.16639581
194	0x3d0bb206	0.034105323
195	0xbdbd16bd	-0.092328526
196	0x3d46102a	0.04835526
197	0xbe87ce47	-0.26524565
198	0xbd662fe9	-0.056198034
199	0x3c56c631	0.013108776
200	0xbe3b0749	-0.18264498
201	0xbe5f1251	-0.21784331
202	0xbe914eec	-0.28380525
203	0xbd3b126c	-0.045671865
204	0xbceb35aa	-0.028712112
205	0xbd9b0ff5	-0.07571403
206	0xbe185bb4	-0.14878732
207	0xbcdea824	-0.027179785
208	0x3bbd1227	0.005769986
209	0xbdcbd5d6	-0.09952895
210	0xbd40fc00	-0.047115326
211	0x3d9a7e33	0.07543602
212	0xbe1f443d	-0.15553375
213	0x3a0c1abe	0.0005344561
214	0xbc0a41cb	-0.008438538
215	0xbc3f1928	-0.011663713
216	0xbd97693f	-0.07393121
217	0x3cbed0c7	0.023292912
218	0x3d294824	0.041328564
219	0x3e18ba7c	0.14914888
220	0xbe2edf7a	-0.17077437
221	0xbc75e2db	-0.0150077
222	0x3d80535e	0.06265901
223	0xbd573417	-0.05253991
224	0xbe1a17f8	-0.15048206
225	0xbe5066f4	-0.20351774
226	0x3ee22500	0.44168854
227	0x3f191ae7	0.59806675
228	0x3e0ef195	0.13959344
229	0xbf7d1371	-0.9885779
230	0x3daa7c72	0.08324517
231	0xbecca650	-0.39970636
232	0x3e5db679	0.21651639
233	0x3d7e898d	0.062142897
234	0x3e6146fd	0.21999736
235	0x3f361ed9	0.7114082
236	0xbf2c42f8	-0.67289686
237	0xbfa4229a	-1.282306
238	0xbf507b86	-0.8143848
239	0xbecfa408	-0.40554833
240	0xbf275df9	-0.65377766
241	0xbe49c252	-0.19703034
242	0x3d866175	0.06561557
243	0xbf1cb659	-0.6121574
244	0x3d7cc0b5	0.061707217
245	0xbdc57c71	-0.09642876
246	0xbee5502b	-0.44787726
247	0xbef96221	-0.4870768
248	0xbea7cd0d	-0.3277363
249	0xbf1cbabb	-0.6122243
250	0xbe38ed37	-0.1805924
251	0x3f8eaaaf	1.1145838
252	0xbf13c020	-0.57715034
253	0x3eecc14d	0.46241227
254	0x3d8e65dd	0.06953023
255	0xbf77d036	-0.9680208

fc2.bias f4 [32]
0	0xbce3c775	-0.02780507
1	0x3ef30d2d	0.4747099
2	0xbe726bc7	-0.23673926
3	0xbed6fc33	-0.41989288
4	0xbe1af239	-0.15131463
5	0xbe927d4c	-0.2861122
6	0xbe854aa2	-0.26033503
7	0x3d4b5b24	0.049647465
8	0x3f545f41	0.82957846
9	0xbedad061	-0.42737105
10	0xbe34be19	-0.17650642
11	0xbeb05e7e	-0.34447092
12	0xbe7cd723	-0.24691443
13	0x3eefff47	0.4687445
14	0x3f398f02	0.7248384
15	0xbe93d5ec	-0.28874147
16	0x3f108184	0.56447625
17	0x3ecaff90	0.39648104
18	0x3beb6554	0.00718371
19	0x3ded0e0b	0.11574944
20	0xbd501b52	-0.050807305
21	0x3e83d1d4	0.25746024
22	0xbe58b015	-0.2116092
23	0x3f2692c9	0.65067726
24	0xbe0b7147	-0.1361743
25	0x3f6cc819	0.92492825
26	0xbcd259b8	-0.025677547
27	0x3db632cb	0.08896407
28	0xbe514858	-0.20437753
29	0xbd82ac70	-0.06380546
30	0xbd321912	-0.04348094
31	0xbe886a80	-0.26643753

fc3.weight f4 [2, 32]
0	0x3f22873f	0.6348762
1	0xbf3c12ab	-0.73465985
2	0xbdc0d894	-0.09416309
3	0x3f8c7115	1.097201
4	0xbd45f205	-0.04832651
5	0x3cc7025f	0.024293123
6	0xbd09054c	-0.033452317
7	0x3f35b5ff	0.7098083
8	0xbf09ad8b	-0.5378043
9	0x3f8d46d9	1.1037246
10	0xbcba5186	-0.022743952
11	0x3f57054d	0.83992463
12	0x3f07838e	0.5293511
13	0xbf7e3e2f	-0.99313635
14	0xbed401e1	-0.41407683
15	0x3f25f5f8	0.64828444
16	0xbf1c7010	-0.61108494
17	0xbf564fd3	-0.8371555
18	0x3fc9ccfe	1.5765684
19	0xbf3e7a6b	-0.74405545
20	0x3d2d6b95	0.042338926
21	0xbf1eb1b1	-0.61989886
22	0x3ede619b	0.43433842
23	0xbf24e76a	-0.6441561
24	0x3ce06669	0.027392583
25	0xbf36fcad	-0.714793
26	0x3f5f5f0b	0.872544
27	0x3f4efeee	0.8085774
28	0xbc100955	-0.008791287
29	0x3f92db3b	1.1473154
30	0xbe180ea9	-0.14849342
31	0xbd514bbb	-0.051097613
32	0xbf218dc9	-0.6310697
33	0x3f2147e4	0.6300032
34	0x3dc844ac	0.09778723
35	0xbf609aaa	-0.87736
36	0xbc9403d5	-0.018068234
37	0x3de1b046	0.110199496
38	0xbd9dfa2a	-0.07713731
39	0xbf6190bc	-0.8811147
40	0x3f0d2102	0.5512849
41	0xbf8add08	-1.0848703
42	0xbd40dc2c	-0.047084972
43	0xbf847358	-1.03477
44	0xbf234cb7	-0.6378893
45	0x3f985c63	1.1903194
46	0x3ea2fee1	0.31835082
47	0xbf2d2ffc	-0.67651343
48	0x3f01f81f	0.5076923
49	0x3f5e14d0	0.8675051
50	0xbfbf6d4f	-1.4955233
51	0x3f434d63	0.7628996
52	0x3d19fda9	0.037595425
53	0x3f27c234	0.65530705
54	0xbf12bb59	-0.5731712
55	0x3f287b06	0.6581272
56	0x3c85042e	0.016237345
57	0x3edd745c	0.43252838
58	0xbf490e32	-0.78537285
59	0xbf447a40	-0.7674904
60	0xbc9b0e7c	-0.018927805
61	0xbf8287cf	-1.0197695
62	0xbd3d366b	-0.046194475
63	0x3c6c08cb	0.014406393

fc3.bias f4 [2]
0	0x3f208a7a	0.627113
1	0xbea26101	-0.31714633
