model_distortion.pth (torch, 10786 bytes, 6 tensors)

fc1.weight f4 [32, 27]
00000000: 4c71 223d 1add 863d 3774 c9be 8bf0 be3e
00000010: ca6e 75bf 9838 8fbc 6588 19be ad3f 7ebe
00000020: 8cc1 03bf 36b6 353f 24ef 3fbe 3f2e 443e
00000030: a68a 1cbf 55c3 813e 0bed 613f 8906 cebd
00000040: f519 08be b36e a23e 1f68 3e3e ba66 8fbd
00000050: c607 c73d cc90 22bd 7471 e53e c3fc b03f
00000060: 6ce6 15bf 5541 873f de9e edbd 52aa bd3d
00000070: 88af c43c 8afb 43bf ff91 313f 535d 13bf
00000080: 9888 89bc c724 9ebd 4996 a9be 35b5 8fbe
00000090: 268d acbe 0080 dc39 decf e13d 2a53 f8bd
000000a0: 1dac 81bf d2d5 2bbf efec 113e bc30 61bd
000000b0: b6cf 5f3e e728 243d f74f 943f 8a2c 35be
000000c0: 2bc6 2d3e e46c 983d b369 543f dafd 2b3d
000000d0: e9fc 823e ca5c cebd c0e7 273c 19fd 353e
000000e0: d516 9b3e 9905 3e3f 410a febb d34a 9bbd
000000f0: 485c 83bd a933 bdbe 8ebb 04be ea45 23bf
00000100: 9c32 7d3d a1f7 163e 4c23 e03e 37a4 333f
00000110: 6422 01bf 7022 2ebd cf72 103e 6448 10bf
00000120: 7c23 06bf 5b71 053f 338d 073e 40a4 27bd
00000130: dbae 02bf 40e4 67be 9704 65be 903f 19bf
00000140: f1f9 8ebe da76 eabd f044 20bc b55c ff3e
00000150: 74d0 15bf a125 c8bf 60c4 8bbc 4474 c3bd
00000160: f7b9 62bf 416e 8fbc f1f2 033e 6b37 1a3e
00000170: 24fc 78bd badc 23bf 3350 273f c8ee 6b3f
00000180: fcf2 76bd 2832 253d c501 36be 30af 11bf
00000190: 31ef a1bc d8fd 09be 73b2 1dbe 3fb1 013f
000001a0: 0378 aebd 8f0a be3e d3c9 813f e367 723e
000001b0: b8af 47bd 8679 f13d d23c 87be 3ba0 81be
000001c0: a261 8abe decb dcbd 8136 25be 01a6 d93d
000001d0: 31db 0ebe 42a5 ac3e b267 9d3d 3071 563d
000001e0: acf2 ffbd 2335 d93d 8b2a cf3f e09d 79bd
000001f0: 52e6 a13d 63fe 13be f36e 48be 3352 f5bf
00000200: 860a 813d b0af 5bbd ea36 a2be d49f 51be
00000210: 9171 7f3f 88ca 543c 47b4 1abf 4a53 883d
00000220: 38c5 de3c 298b c8be a908 4abf f9d1 323f
00000230: c518 d5bd e203 cb3d f132 af3e 5490 7dbe
00000240: 7851 913f d413 763d d05e 58bd 7e9f acbe
00000250: b108 3a3e 0e25 bfbf bcc3 41be e4fc b1bd
00000260: 2f26 0abf 6a65 af3e 7776 2fbe c19e 283e
00000270: 427c 823d b3cb 8b3d 2f93 ddbe bd33 233d
00000280: ce34 db3e 6b4c 1a3e 5817 29be 20c8 5dbd
00000290: c350 2b3f 7308 44bf 0192 81bf abef 0b3e
000002a0: e449 ecbd 67b0 69bf 97b1 8f3c 5d55 2b3f
000002b0: b558 14be 61fd 0b3e b2af 5bbf bee5 7a3e
000002c0: bb6e 6b3f 6ff2 363e 2855 2cbe ce5e 13bf
000002d0: 4636 983e 2893 5dbf bb3b b4bd e0f4 82bd
000002e0: 5010 e33c dc8f 1bbf 730a 253f 6c72 e53e
000002f0: f36e aabc 1a85 30be e829 3ebd ebe7 203e
00000300: 2c69 11be 3a9a 17be e040 cd3c 4297 b13d
00000310: cd3c 853e 6547 063e 2d54 97ba 00a7 e4ba
00000320: 23c0 283e 427a 14be 2636 233f 5f81 483e
00000330: fb28 0b3e 83f2 1ebe 4c69 f43e 81c4 d0bd
00000340: 6402 abbf 8511 193e ec82 c2bd e202 7f3f
00000350: 7630 013f 92a0 ebbe d442 debe b69d 9c3d
00000360: 869e 823d 7e6b e63d dd8e b63e 1096 89bf
00000370: 8cf4 8fbe a096 08bd 8aaf 02be e428 0ebf
00000380: f060 0e3f f6b0 053f 4719 ebbd 5585 1b3e
00000390: 8384 e3be 5f0a 25be acd7 c83e f7e1 d5bd
000003a0: 6436 6d3d d131 9fbe 92d5 2abf c3f6 33bf
000003b0: d230 38be 1770 053e 935d 42bd 5af3 25bf
000003c0: d839 c1be 13c8 9bbe 695b 2dbe f882 aebd
000003d0: 211a 283e 2e54 413f 7a1d 24be 793b 5a3e
000003e0: f0f3 16be 438c 20be e5bf 093f d135 243f
000003f0: 6a10 cf3d 8081 423b a02e 66bd b173 f6be
0.03965883 0.065851405 -0.39346477 0.37292895 -0.95872176 -0.01748304 -0.14993437 -0.24828978
-0.51467204 0.70981157 -0.18743569 0.19158266 -0.6114906 0.2534434 0.88252324 -0.1005984
-0.13291152 0.31725082 0.18594407 -0.070020154 0.097182795 -0.03968887 0.4481312 1.3827137
-0.5855472 1.0566813 -0.11602567 0.09261002 0.024009481 -0.76555693 0.693634 -0.57564276
-0.016788766 -0.077218585 -0.3312247 -0.28067937 -0.33701438 0.00042057037 0.11025976 -0.12125237
-1.013065 -0.6712314 0.14250539 -0.054978117 0.21856579 0.04007807 1.1586903 -0.17692772
0.16970126 0.07442644 0.82973784 0.04199014 0.2558358 -0.10076292 0.010248125 0.1777233
0.30290857 0.7422729 -0.007752687 -0.07582631 -0.064140856 -0.36953476 -0.12962171 -0.63778555
0.061815843 0.147429 0.4377693 0.70172447 -0.504431 -0.04251331 0.14106296 -0.5636046
-0.52397895 0.5212609 0.13237457 -0.040928125 -0.5104806 -0.22645664 -0.22365032 -0.59862614
-0.27925065 -0.114484504 -0.009782061 0.49875417 -0.585212 -1.5636483 -0.017061412 -0.0954366
-0.8856501 -0.017508628 0.12885644 0.15060203 -0.060787335 -0.64008677 0.6535675 0.92161226
-0.06029032 0.040331036 -0.17774113 -0.5690794 -0.019767376 -0.1347574 -0.15400104 0.5066108
-0.08518984 0.3711743 1.0139717 0.23672442 -0.048751563 0.11790757 -0.2641359 -0.2531756
-0.27027613 -0.10781072 -0.16134073 0.10627366 -0.13950802 0.33719832 0.07685794 0.052354038
-0.12497458 0.10605838 1.6184858 -0.060941577 0.07905258 -0.1445251 -0.19573574 -1.916571
0.06300835 -0.053634346 -0.3168252 -0.20471126 0.99782664 0.01298774 -0.6043133 0.06656511
0.02719365 -0.3916867 -0.78919464 0.6985164 -0.10405115 0.0991285 0.34218553 -0.24762088
1.1352987 0.060077503 -0.052824795 -0.33715433 0.18167378 -1.4933183 -0.18922323 -0.08690813
-0.53964514 0.3425706 -0.17135035 0.1646681 0.063713565 0.06825962 -0.43276355 0.039844263
0.42813724 0.15068214 -0.16512811 -0.054145932 0.6692011 -0.7657539 -1.0122682 0.13665645
-0.11537531 -0.91284794 0.017540736 0.6692713 -0.14486964 0.13670875 -0.85814965 0.24501702
0.91965836 0.17865919 -0.1682936 -0.57566535 0.29728907 -0.8655267 -0.08800455 -0.063943624
0.02771774 -0.60766387 0.6446907 0.4481386 -0.020804858 -0.17238274 -0.046426684 0.1571347
-0.14200276 -0.14804927 0.025055349 0.08671428 0.2602295 0.13113172 -0.0011545472 -0.0017444789
0.16479544 -0.14499763 0.637545 0.19580601 0.13589852 -0.15522198 0.47736585 -0.1019373
-1.3360105 0.1494809 -0.094976276 0.99613774 0.5046457 -0.46020943 -0.4341036 0.076472685
0.06377892 0.11250971 0.3565587 -1.074892 -0.28116262 -0.033346772 -0.12762275 -0.55531144
0.55616665 0.52223146 -0.11479431 0.15187581 -0.44437036 -0.16117238 0.39227045 -0.1044349
0.0579132 -0.31092694 -0.6673213 -0.70298404 -0.17987373 0.1303104 -0.04745252 -0.6482445
-0.37739444 -0.30426082 -0.16929401 -0.08521074 0.16416217 0.75519073 -0.1602687 0.2131175
-0.14741492 -0.15678506 0.5380843 0.6414462 0.101105526 0.0029679239 -0.05619681 -0.4813514

fc1.bias f4 [32]
00000000: 869a cdbe 9b74 bfbf 0f02 ebbe 6ba3 c3bf
00000010: ff3d 35bf 8a46 86bf dcae 9dbf 2848 90bf
00000020: 27a5 d1bf 3df1 84be 049c debe 7011 82bf
00000030: 28b8 35bf c0ef 37bf 040d 0dbf 0cff 9abf
00000040: 363b e9be e94d 8ebf 2bf4 d7be 6726 163d
00000050: a5f1 c1bf 61bc 4dbf 3d1e 0dbd c099 1bbf
00000060: 8227 51bf 0aed d3bf ebe0 96bf 5685 163d
00000070: fbd0 b5be facf 20bf fd8b 8ebf 52bc 18bf
-0.40156955 -1.495746 -0.45900008 -1.5284246 -0.70797724 -1.0490277 -1.2318988 -1.127202
-1.6378525 -0.259653 -0.43478405 -1.0161572 -0.70984125 -0.71850204 -0.55097985 -1.2109084
-0.45552987 -1.1117526 -0.42178473 0.036657717 -1.5151869 -0.8036557 -0.034452666 -0.6078148
-0.8170091 -1.6556714 -1.178739 0.036748253 -0.35511002 -0.6281735 -1.1136471 -0.59662354

fc2.weight f4 [32, 32]
00000000: 6e90 143f dfad 5bbf 8c4e f6be 5df1 9b3d
00000010: e62e 1f3f b175 053e c1c0 0b3f 1590 5cbe
00000020: e402 0b3f 6b1e 48bf c4c9 283e d77e d43e
00000030: dee8 f4be ce86 87bf 6e1b 3bbf b92b 41bf
00000040: 154d ccbe f4eb 00be 5b89 733f 2668 183f
00000050: 29bf 4abe 8245 1c3f 3047 abbe 7f1e b1bf
00000060: 8044 f3bf 7219 1b3f 0381 d5be 9812 abbf
00000070: 6ac0 e73e b6f0 54be 1473 ddbe 4da1 953f
00000080: 1147 a43e 969e 7fbf c26b 7dbf 562a 00be
00000090: ae9e 3d3f 12dd e7bf 9638 f23e 36ad 163f
000000a0: 0a86 a1bd 61f4 99be 670b 1abf 5661 38bf
000000b0: 9ecc e33e 959c fe3e 3fc6 d0bf 4e92 75bf
000000c0: bc14 9abe 6f2a 1d3f 5cab dc3e fb9c 2c3f
000000d0: b5e7 f33c 1e80 573e 5bba e63d 5c35 e9bf
000000e0: dd04 93bf 9a42 2f3f 9a4f 82bf ca10 c63e
000000f0: bb04 bcbc b167 3cbf ea51 7fbe bc7e 823d
00000100: ad85 43bf 8742 c63f 8370 5ebf e73c 18bf
00000110: e21b 0cbf d61a a4bf a907 f6be 3f29 50be
00000120: 2fa2 86bf 9287 febe 3261 cabe 13a9 513d
00000130: 5baf 56bf 0ae3 3e3e 3523 523d c05a 01bf
00000140: 6a77 64bf 6153 c33e 86a5 e03e 0ab2 8fbf
00000150: ed4a 4fbe 3bd1 21bf 747f 183f c85a b1bf
00000160: 0cd4 7ebe 86f9 cb3f 1981 eebe 1f9b 133f
00000170: fd72 86bf 3a90 2b3f 50d7 073e a604 01bf
00000180: 3b99 5abf 076a de3e cae0 2dbf ca03 8abe
00000190: ed8a 82be d677 adbe cfac 74bd 4303 55bf
000001a0: 8528 823f a35e bcbf 9e26 d5bf 1410 5fbe
000001b0: d950 c9be 6d11 7d3e ac38 593f 0b1d d5be
000001c0: 45fb d5bf c9d5 56be f2e6 1c3e 7ae3 273e
000001d0: bd7c 4fbf e299 0abf 1d0b 14bc c5d9 363e
000001e0: d09c 37be 9c2b b73e 5ebe 7abe 7419 2bbe
000001f0: bc14 b3bf ab57 88bf e348 943e 19f3 8f3f
00000200: a8f9 1fbe 6485 3ebe 826c 86be 3c2c 22bd
00000210: e028 48be b15a 7fbe 2eac 703c e6ed 28be
00000220: 2d00 6ebe d5d2 2ebe 7c78 033d 251d 82bd
00000230: 73aa 2abe 10b7 10be 8d1f 02be b24a 07be
00000240: 5d2a 08bd aad5 e6bd 602e 903d 5fd1 9ebc
00000250: 6502 af3d 3d1f 83be c54f 2cbe d346 afbd
00000260: 356e 04be 43f1 8bbd 55d3 11bc 4c74 09be
00000270: 0f6f 0cbe d4cc 1dbe 1002 2cbe 5589 8f3d
00000280: 0e75 94bd 4628 3abe 5b6c f3be 62c6 20be
00000290: 6360 6fbe 77d5 a43d 950f b7be b420 87bd
000002a0: dc43 87be 7705 45be 4226 05be 1dd2 613d
000002b0: 755b 313c d36f 86be d119 553d 9136 d63d
000002c0: efb2 dabd e8db 39be aa6b e4bd 7072 1dbe
000002d0: 715f a43c d019 3fbe 20e8 a3be de79 2ebd
000002e0: f35d 3abe 72ec 163d 0807 04be 9b42 013d
000002f0: e050 84bd 9bf4 333c 4508 7bbe 2160 5abe
00000300: 6705 82be 00bd d93c 4693 cbbd a516 36bf
00000310: 4924 3bbe 2a44 623d dbb8 e43d da4e b8bd
00000320: 3472 a73e 07df d9be a49b 4dbe 87dd 06bf
00000330: ff55 00be a222 8abe 64e4 55bf c923 28be
00000340: d113 84be 8220 c9bd 2c68 d4be dad3 323c
00000350: 8e18 1cbd 6f2e 90be a839 15bf a9f1 7dbe
00000360: e134 46bf 0ad3 34be 015d e4be 32ea 36be
00000370: e720 65be 0643 8abe 20ff 08be 84b7 a33d
00000380: 6011 8f3e bf19 13bf e372 0bbf 4d01 363d
00000390: 0b84 91bf be6b a7bc 2005 263e 5e57 a0bf
000003a0: c12e 703e fdba 0fbd 6fa2 6f3f b4e5 98be
000003b0: 40ff 1dbf c36a 90bf ad4c a0bf faae 91bc
000003c0: 8356 b23d e96f fbbe ee67 babf 5d40 103f
000003d0: a009 5e3f 2854 3a3e 0671 88bf e577 0b3e
000003e0: 3267 8abe 7d7d 8cba 3f91 b83e ff25 52bf
000003f0: ef2c fc3e 7495 a93e 9b66 4fbf 6efc acbf
0.5803288 -0.8581218 -0.48106802 0.07614396 0.62180936 0.13033177 0.54590994 -0.21539338
0.54301286 -0.78171414 0.16483217 0.4150302 -0.47833914 -1.0588014 -0.7308873 -0.7545734
-0.3990256 -0.12590009 0.9513146 0.5953392 -0.19799484 0.6104356 -0.3345275 -1.3837432
-1.900528 0.605857 -0.4169999 -1.3365049 0.45263988 -0.20794949 -0.4325186 1.168985
0.3208547 -0.9985136 -0.9899255 -0.1251615 0.7407025 -1.811434 0.47308797 0.5885805
-0.07886894 -0.3006926 -0.6017365 -0.7202352 0.44492048 0.49728838 -1.63105 -0.9592637
-0.30093944 0.61392874 0.43099487 0.67427033 0.029773572 0.21044967 0.11266013 -1.8219409
-1.1485859 0.68461 -1.0180542 0.38684684 -0.022951474 -0.7359572 -0.24933591 0.06371829
-0.7637585 1.5489053 -0.8689043 -0.5946793 -0.54730046 -1.282069 -0.4805272 -0.20328234
-1.0518245 -0.49712807 -0.3952728 0.051186632 -0.8386132 0.18641296 0.051303107 -0.505291
-0.8924471 0.3814955 0.43876284 -1.1226208 -0.20243426 -0.63209885 0.5956948 -1.3855829
-0.24885577 1.5935524 -0.4658287 0.5765857 -1.0503842 0.6701695 0.13265729 -0.5039772
-0.8539006 0.43440267 -0.67921126 -0.26956016 -0.25496617 -0.3388049 -0.059735116 -0.832081
1.0168616 -1.4716381 -1.665241 -0.21783477 -0.39319494 0.24713679 0.848521 -0.4162372
-1.6717306 -0.2097999 0.15322474 0.16395369 -0.8104971 -0.54141057 -0.009035853 0.1785651
-0.17930913 0.3577546 -0.24486682 -0.16708928 -1.3990703 -1.0651754 0.28961858 1.1246063
-0.1562258 -0.18605572 -0.2625466 -0.039592966 -0.19546843 -0.2493694 0.014689488 -0.16497001
-0.23242255 -0.17072614 0.032097325 -0.06353215 -0.16666584 -0.14132333 -0.12707348 -0.13212088
-0.033243526 -0.11271222 0.07040095 -0.019386945 0.085453786 -0.2560977 -0.16827305 -0.085584305
-0.12932666 -0.068331264 -0.008900483 -0.1342327 -0.1371424 -0.15410167 -0.16797662 0.07008616
-0.07248889 -0.18179426 -0.47543606 -0.15700677 -0.23376612 0.08048528 -0.35754076 -0.065980345
-0.2641896 -0.19240366 -0.13002875 0.05513202 0.010825028 -0.2625719 0.052026574 0.104596265
-0.1067866 -0.18150294 -0.11153348 -0.15375686 0.020065041 -0.1866219 -0.32013035 -0.04259669
-0.18199901 0.036846586 -0.12893307 0.03155766 -0.06460738 0.010983611 -0.24514873 -0.21325733
-0.25394747 0.02657938 -0.099401996 -0.711283 -0.1827556 0.055240788 0.11168071 -0.08999415
0.32704318 -0.4255297 -0.20078903 -0.52681774 -0.12532805 -0.26979548 -0.8355162 -0.16419901
-0.2579637 -0.098206535 -0.41485727 0.010914767 -0.038109355 -0.28160426 -0.582911 -0.24799217
-0.77424437 -0.1765863 -0.44602206 -0.17862776 -0.22375832 -0.2700426 -0.13378572 0.07993987
0.27942944 -0.5746116 -0.5447218 0.044434834 -1.1368421 -0.020437118 0.16212893 -1.2526662
0.23455335 -0.035090435 0.9360723 -0.2986275 -0.61717606 -1.1282581 -1.25234 -0.01778363
0.08707907 -0.49108818 -1.4562967 0.5634821 0.86733437 0.18196166 -1.0659492 0.13619955
-0.27031857 -0.0010718551 0.36048314 -0.8208923 0.49253032 0.33121836 -0.8101594 -1.3514535

fc2.bias f4 [32]
00000000: 2c79 523e 9249 423e 9f1e 04bf d40e a3be
00000010: 558a 1dbe dfa0 90be 9f07 e2be 3a9d 943f
00000020: c493 13bf 42c9 febe 2c4a 05be 156a 29bf
00000030: 8c6a 4abf ae6a 993f 1200 ddbe fd86 17bf
00000040: 9212 6dbe 0d91 eebe 3f74 34be ecd8 b23c
00000050: cb6f 6f3f 21aa 323d fcc5 f0bd 7ab7 82be
00000060: 8557 09bf 9e6d 0a3f 11c9 a6be 0160 99be
00000070: 070b d9be 0bfc 02bf 6129 0f3f b9eb ad3f
0.20554036 0.18973377 -0.51609224 -0.3184725 -0.153848 -0.28247735 -0.4414644 1.1610482
-0.5764735 -0.49762923 -0.13016576 -0.66177493 -0.7906883 1.1985681 -0.43164116 -0.5919035
-0.23151615 -0.4659504 -0.1762247 0.021831952 0.9352996 0.04361928 -0.117565125 -0.25530607
-0.5364917 0.5407351 -0.32575276 -0.29956058 -0.42391226 -0.5116584 0.55922514 1.3587562

fc3.weight f4 [2, 32]
00000000: f18e 953f c8c5 953f 43ee 473f 2b96 883f
00000010: 46dc 0dbc dd1d b03c 7698 f7bc 8fa5 47bf
00000020: 89dc 623f 31c6 b53f 449d 93bc f242 6ebf
00000030: 1a12 94bf 8d21 10bf fc31 683f 12a0 09bf
00000040: 3441 12be 12f6 2d3f 06ee 13bd 54ef 363f
00000050: 9010 03bf bb3e 88bf 04e3 073d 63bf 613c
00000060: 14f7 6d3f eb87 703f ddef b5bd 48e8 553f
00000070: 1105 cbbd 6ba8 9d3f 72ad 9f3f 6a18 14bf
00000080: 65f3 a2bf b21a b0bf 291d 21bf 1cb8 a0bf
00000090: a4d6 223e 99ab 003e 7e87 9fbd acbe 383f
000000a0: 16b1 7bbf a778 a3bf 459f acbc 10bd 8c3f
000000b0: a50d 833f f890 383f ef22 60bf c265 9c3e
000000c0: 0072 f6bd 3452 24bf 0384 95bd 0e1a efbe
000000d0: ea68 f63e 47c7 8d3f 3162 fabd d0f8 b63d
000000e0: d656 64bf 1cea 66bf ebca 073d 85d5 00bf
000000f0: f295 6cbe c51b b0bf 2705 89bf 888d fd3e
1.1684247 1.1700983 0.78097934 1.0670828 -0.008658474 0.021498615 -0.030224066 -0.77987
0.8861776 1.4201108 -0.018019326 -0.930709 -1.1568024 -0.56301194 0.9070127 -0.5375987
-0.14282686 0.679536 -0.03611567 0.71458936 -0.5119715 -1.0644144 0.033175483 0.01377854
0.92955136 0.93957394 -0.08883641 0.8355756 -0.09913076 1.2317022 1.2474806 -0.5784975
-1.2730528 -1.3758147 -0.6293512 -1.2556186 0.15902191 0.1256546 -0.07789515 0.7216594
-0.98317087 -1.2771195 -0.02107204 1.0995197 1.0238539 0.72096205 -0.87553304 0.30546385
-0.120334625 -0.6418793 -0.0730057 -0.46699566 0.48126918 1.107644 -0.1222576 0.08934176
-0.89195 -0.9020097 0.033152502 -0.50325805 -0.23104075 -1.3758475 -1.0704697 0.49522042

fc3.bias f4 [2]
00000000: eb2a 3cbf 7582 363f
-0.7350299 0.7129281
