models/2d_static_classifier_15_epochs.pth (torch, 4910 bytes, 5 tensors)

fc1.weight f4 [15, 15]
00000000: 644d 07bd 0a12 16bd 6873 8a3e a003 4e3e
00000010: 9da0 303d 010b ca3d 3a11 bc3d f508 a0bc
00000020: 0286 823e e9e9 7fbd 3823 843e b1b5 a93b
00000030: 7e67 ee3d 1b5b 823e 4284 913e e184 0a3d
00000040: c06c 28bd e392 81bd 5b8c d8be 0258 febd
00000050: 19d8 a5bd 6008 4e3e 44fc 103e f33a 4dbd
00000060: bb32 2fbc 49ab 243d a5b7 513e 887a be3d
00000070: e6e4 5ebe bcf2 e13d ff07 813d 9947 5a3d
00000080: 797b 4bbd 8b3b cfbe 627b 5e3e af61 063e
00000090: 13c5 eabd 88b9 3b3e 86df 4abd ac9d 2e3d
000000a0: b4d3 2ebe 013b 29be b8fd 65be f66c 8d3d
000000b0: 42e8 e2bd 69cb 923e 2260 9c3e 7974 7d3e
000000c0: 3d64 a53e b0f5 b13e 421b babd d768 5b3d
000000d0: 5474 a23d f4f9 a1bd abad 4bbd 06ba b5bd
000000e0: 6703 733d 4e51 26be ace1 38be afe4 8e3d
000000f0: 00cb 403e f66f a43e 9ede 0ebe 85c9 cdbd
00000100: 1422 4a3c 3b67 a4bd 2506 e7bd 843d 373e
00000110: 6d5c 2ebe c013 19be e711 53bd 624c 0e3d
00000120: b386 1abe a697 3fbd 3ab1 2a3d e4fa 86be
00000130: c5b4 cabe 8808 d3be 6c2e d8be 8f92 53be
00000140: be92 753d c0d1 b93d ef46 963d 1ab0 fe3d
00000150: a356 a93d 16bc 043e a88a 03bd 3b32 863d
00000160: 7afd a23e 1225 6f3c 6386 433e 0bfa 163e
00000170: c85f c93d f980 813e cca9 04be 8993 25be
00000180: 9453 acbd 9f20 2fbe 92e4 813e 4ff8 d73d
00000190: 44f0 123e 7aec 5dbe 6d63 48be 1b14 b63d
000001a0: c369 153d d37d d53e aaf1 b03e 1c6a d83e
000001b0: 42b4 3a3e 0d89 443e 2cdc e0bd a4c3 24be
000001c0: 74fd 853d cf94 4bbe 5417 80be 8bc3 36be
000001d0: d557 91bd 968b 303d f971 a03d f56c 2d3e
000001e0: 2f33 d33e f9e4 dc3e 9a8d d73e 6bea 333e
000001f0: d1ed 0d3f d3f8 593d aaa8 213e 5ca5 273e
00000200: f96f 12bc 2db4 b9bd 6b57 be3c 9969 a0bc
00000210: 3878 4c3d bb0d cd3d e05e a53d e6fa 75be
00000220: 95ed 3dbe da4c b4be 2f94 00bc ce2c 89bd
00000230: 083c bfbd fc20 863e 2149 593e 7c40 5d3d
00000240: 808c 523e 5762 043e fc78 ce3d d45d 53bc
00000250: ac47 693c 1275 48bc 4dee f73e 8a19 863e
00000260: e670 993e a7ae cb3e 0378 a23e 865c 1b3e
00000270: c5b2 1a3d 3a72 32bd 5dae 223e 8b71 633e
00000280: 3120 363e 0b5b 243e 8f19 0f3e 1613 01be
00000290: de77 a0bd b7b7 9bbd 77c9 293e 4c67 43be
000002a0: 150e f43d 58da 793e 0b01 e8bb c25a c63d
000002b0: 77e1 103e a4d4 873e 7ddf ae3d 3a27 29bd
000002c0: f931 7a3e f83a ab3d 7ea1 7f3c cbdb 1fbe
000002d0: e9d1 ccbe 9eb6 cabe 7ff5 42be e99d c63d
000002e0: 31d8 91be 5dae 2f3e 9c7e 04be ef19 8bbd
000002f0: 3774 553e 9fff 8bbd e79e 9ebd b4c1 873e
00000300: b6df 143e b484 d5bc c55d 503e 163a 85bd
00000310: 5e08 13bd 5713 903d 58a2 80be 430b bdbe
00000320: 99f1 403e 2816 a93d 6738 283e 3bb5 22be
00000330: da84 1b3e 238c 99be b34c 11be fcbb 8e3e
00000340: 8f3a 8bbe 586d 07bd 829c 783e 5a5b 55bd
00000350: f2ef 84bd 44c6 0f3e b5fe 893e 35b5 8c3e
00000360: 60b6 9fbd ebe2 f3bd 4c4f c23b 6fab 8bbd
00000370: f71e 26be 49de 6a3e 203f 913e cf85 913d
00000380: c1f3 9d3e
-0.03303279 -0.036638297 0.27041173 0.2011857 0.043121923 0.0986538 0.09182973 -0.019535521
0.25492865 -0.062478933 0.2580812 0.00517913 0.11640833 0.25460133 0.28421217 0.03381813
-0.041119337 -0.063268445 -0.42294583 -0.1241913 -0.08097858 0.20120382 0.14158732 -0.050105046
-0.010693247 0.040202413 0.20480211 0.09300715 -0.21767005 0.11032626 0.06300353 0.053290937
-0.0496783 -0.40475115 0.21726754 0.13123201 -0.1146337 0.18332493 -0.049529575 0.042630836
-0.17072946 -0.16526414 -0.22460067 0.06905548 -0.11079456 0.28670815 0.30542094 0.24751462
0.32303038 0.34757757 -0.0908723 0.05356678 0.07932344 -0.07909003 -0.04972617 -0.08873372
0.059329417 -0.16241953 -0.18054837 0.06977212 0.18827438 0.3211667 -0.13952109 -0.100482024
0.012337226 -0.08027502 -0.11280469 0.1789456 -0.17027445 -0.1494894 -0.051530745 0.034740813
-0.15090446 -0.046775483 0.041672923 -0.2636329 -0.3959104 -0.41217446 -0.42222917 -0.20661376
0.059954397 0.0907321 0.07337748 0.124359325 0.08268478 0.12962374 -0.032114655 0.065525495
0.31834012 0.014596241 0.19094233 0.14743821 0.09832722 0.2529371 -0.12955397 -0.16169561
-0.08414379 -0.17102288 0.25369698 0.10545408 0.14349467 -0.2167224 -0.19569178 0.088905536
0.036477815 0.4169756 0.34559375 0.42268455 0.18232825 0.19192906 -0.109794945 -0.16090256
0.06542483 -0.19880985 -0.25017798 -0.17848031 -0.07096831 0.04310187 0.078342386 0.16936095
0.41249987 0.43143442 0.4210022 0.17569892 0.55441004 0.053215813 0.15786996 0.16371673
-0.008937829 -0.09067569 0.023235044 -0.019581603 0.049919337 0.100123845 0.080747366 -0.24021491
-0.18547662 -0.35214883 -0.00784783 -0.06697999 -0.09337622 0.2619704 0.21219303 0.054016575
0.20561409 0.12928139 0.1008167 -0.012900788 0.014238279 -0.012234943 0.48423997 0.2619136
0.29968947 0.39781687 0.31732187 0.15172014 0.037768144 -0.043565966 0.15886827 0.22211282
0.17785718 0.16050355 0.13974594 -0.12604937 -0.07835363 -0.076034 0.16580759 -0.19082373
0.119167484 0.24399698 -0.0070802025 0.096852794 0.14148508 0.2652942 0.08538721 -0.041297175
0.24433126 0.08360857 0.015602468 -0.15611188 -0.400039 -0.3959245 -0.19038962 0.09698088
-0.28485253 0.17156358 -0.12938923 -0.06792056 0.20845114 -0.06835865 -0.07745152 0.2651497
0.14538464 -0.026064254 0.2034827 -0.0650522 -0.03589665 0.07034939 -0.25123858 -0.36922655
0.18842162 0.08256179 0.16427766 -0.15889446 0.15187398 -0.29989728 -0.14189415 0.27877796
-0.27193114 -0.033063263 0.24278453 -0.052089073 -0.064910784 0.14040476 0.2695214 0.27482
-0.07798457 -0.119085155 0.005929863 -0.06819808 -0.1622275 0.22936358 0.28368473 0.071056
0.30850032

fc1.bias f4 [15]
00000000: 1a09 6a3e bf91 e13c e60a 79bd 8d82 ffbe
00000010: 4596 b93e 1eed a23e 62c5 66be 6a8e e1be
00000020: 7b52 07bf 8a04 243f 7443 15bf 0a9f a13e
00000030: 8d25 9a3e 8a4d 4f3d cff4 813e
0.22855034 0.027535317 -0.06080141 -0.4990429 0.3624746 0.3182153 -0.22536233 -0.44053966
-0.5286023 0.64069426 -0.5830605 0.3156665 0.30106774 0.050611056 0.25382087

fc2.weight f4 [15, 15]
00000000: 6e0d 193e 4f43 8a3c da3d 2fbd befe 03bf
00000010: 493f a13e 0d5a bebe 65a3 9e3d 09ff d5be
00000020: d490 1a3d 5be7 7a3e 4bea 66be 10ce 2dbe
00000030: 0758 01be 17c0 3fbe bc25 863e 2f77 0f3e
00000040: 55b9 bd3e 060c 93bc e18a 9abe 8d65 e83e
00000050: 928c 173f 6016 933e 153a e9be 4748 3fbf
00000060: 8a33 2d3e 9df2 26bf 6584 8a3e 7938 c43e
00000070: 21fc 0c3f 4c21 80bc e768 0dbe 39c0 d83d
00000080: 8e57 2e3e fdf0 5abd 9409 483e 3f18 953e
00000090: e90a b63e d060 adbd e9d6 00bf 28ba c33e
000000a0: 22b1 dfbe def9 8c3d e132 d83d 599a 7c3e
000000b0: f438 7a3d 101a fcbd 14ef 48be 6377 1a3e
000000c0: ead9 983e cf71 d0be 9606 62be aec7 9d3e
000000d0: 9fb7 083f 5b14 023f 5c28 46be 3fd9 853e
000000e0: b9df 5c3e ab1f 72be 7984 803d 9ed2 2abd
000000f0: a9cb a73e a3c7 d53c 2b1c 4ebe 9432 35bf
00000100: c56d 983e 0979 e6be 1864 99be 507c 1dbf
00000110: 08ff 223d 8017 543e 837f b2be cda0 963e
00000120: a688 5abd 0e6a c8be 4675 3d3e cec1 6c3e
00000130: 9bc9 edbd 7418 5dbe f2c2 34bf 3653 643e
00000140: 9c28 dcbe 056f e63c 0625 f3be cc1e 87be
00000150: 3e50 043e 6229 9bbe ad9b 883e 8416 74be
00000160: 716a f8be 4ef4 cf3e 156e 2bbe 98ea 323e
00000170: 1426 27bd 17aa 893d 1d64 26be a40e 5a3e
00000180: 2dc7 053e 7b7a 39be a36b 393e 13b4 86be
00000190: 8273 6dbc 8b23 8abd 8692 8e3d c7ef 1c3e
000001a0: 8581 66be 0969 233d b705 55bd 6594 8f3e
000001b0: 1828 9839 81e8 e93d 1490 0bbd 8a98 6f3e
000001c0: e418 91be 8a1f a3be a75d a13e 0545 cbbe
000001d0: 6bdc e83c bc4d f53d 8a7d 053f 2841 d03c
000001e0: fdf8 5cbe 7c19 dfbd f29b 31be 0c54 bf3d
000001f0: 109a f1bd e6cb f2bd 601a d83c 935b 6dbe
00000200: 100d fe3d f49b 4a3e 4cda 7fbe f09d 12be
00000210: 547e efbd 9447 493e 566a edbd af35 fd3d
00000220: 7690 fa3d fed1 c7bd b4be 9fbd 9836 8f3e
00000230: 4784 c73e 8e0b e0bc 0268 80be 12a7 2abe
00000240: 5822 623e 4cb1 c3be e753 40bd 9336 003e
00000250: 2f10 a93e b8e9 89be f4c3 573e aa80 51bb
00000260: deb6 92be 23ae f8be c305 d33e a657 76be
00000270: 7e55 0fbe 46b3 03bf 6795 1abc 407e a3bd
00000280: e49c d3be 7c93 8f3e f94d 8ebe e88a 8bbe
00000290: 82d3 e83d 95f5 aa3e 2108 a0bd 1319 d1be
000002a0: 4e18 cabe 7245 c43e 64fc 89be c34b 9fbe
000002b0: a2b7 62be f408 5dbe 4fe4 af3d 98e2 9fbe
000002c0: 3137 1c3e ac6a 2cbe 221a fbbd 2f8c 873e
000002d0: 190c f83d 9f4e 563e 9e77 af3d 4fdb 2c3f
000002e0: 613a 8abe 051e 993d 5554 343e 9511 183f
000002f0: 5f60 ab3e 4bd0 cfbe 4026 b23e f800 043e
00000300: 1923 b8bb 3f9e 383e f837 93be c20c f8bd
00000310: 4643 8b3e 8c3a e23d 7919 2fbd ffe1 ee3d
00000320: f3e6 433f f0d7 2a3e 1f99 4bbe a74e 0cbf
00000330: 2a58 c33e 08be f1be 52c0 ac3c 1deb a33e
00000340: 7c9e 7f3e 7bba 053e 9abe 0dbe 806f 563b
00000350: 3843 553e 9e21 513e 1296 e4bd 20e8 703e
00000360: 0812 48be 2cee 9b3d b0da 9bbc 2a83 50be
00000370: a01f a93c 1078 7abc a853 693d 2cc2 cebd
00000380: 00b4 d33c
0.1494653 0.016877798 -0.042783596 -0.5156058 0.31493595 -0.37178078 0.07746009 -0.4179614
0.037735775 0.24502318 -0.22550313 -0.16973138 -0.12631236 -0.1872562 0.26200664 0.14010309
0.3705546 -0.01795007 -0.3018408 0.45389977 0.5919887 0.28728008 -0.45552126 -0.7471966
0.16914192 -0.6521395 0.27054134 0.38324335 0.5507222 -0.015640877 -0.13809548 0.105835386
0.17025587 -0.05345248 0.19534904 0.2912006 0.355552 -0.08465731 -0.50327927 0.38227963
-0.4368983 0.06883596 0.105565794 0.24668254 0.06108947 -0.123096585 -0.19622451 0.15084605
0.29853755 -0.4071183 -0.22072825 0.30816406 0.53405184 0.5081231 -0.19351333 0.26142308
0.21569718 -0.23644893 0.06275267 -0.041704766 0.32772568 0.02609617 -0.20127933 -0.707803
0.29771248 -0.45014217 -0.29959178 -0.6151781 0.039793998 0.2071209 -0.3486291 0.29419556
-0.053352974 -0.39143413 0.18501768 0.23120806 -0.11610719 -0.2159136 -0.7060996 0.22297367
-0.42999732 0.02812911 -0.47489184 -0.26390684 0.12921235 -0.3030501 0.2668127 -0.23836714
-0.48518708 0.40616077 -0.16741212 0.17472303 -0.0408078 0.06721895 -0.16249128 0.21294647
0.13064261 -0.18113129 0.18107466 -0.2630926 -0.014492871 -0.067450605 0.06961541 0.15325843
-0.22510345 0.03989509 -0.052007403 0.28042904 0.0002902157 0.114213 -0.03407295 0.23398033
-0.28339303 -0.3186 0.31516764 -0.39701095 0.028425416 0.11977717 0.5214468 0.025421694
-0.21579356 -0.10893533 -0.17344645 0.093422025 -0.11796963 -0.11855297 0.026379764 -0.23179464
0.12404835 0.19786054 -0.24985617 -0.14318061 -0.11694017 0.19656211 -0.115925476 0.12363755
0.12234585 -0.0975685 -0.078000456 0.2797134 0.38968107 -0.02734926 -0.25079352 -0.16665295
0.22083414 -0.38221204 -0.046955016 0.12520818 0.3302016 -0.26936126 0.21070844 -0.003196756
-0.28655142 -0.48570356 0.41215333 -0.24056873 -0.13997456 -0.51445425 -0.009435034 -0.07983065
-0.41330636 0.2804221 -0.27793863 -0.27254415 0.11368467 0.3339049 -0.078140505 -0.40839443
-0.39471668 0.38334233 -0.2695037 -0.3111249 -0.22140363 -0.21585447 0.08588468 -0.31227565
0.15255429 -0.16837567 -0.12260844 0.2647414 0.121116824 0.20928429 0.08567737 0.6752214
-0.26997665 0.07476429 0.17610295 0.5940183 0.33471963 -0.40588602 0.34794807 0.12890995
-0.0056194183 0.18029116 -0.28753638 -0.12111808 0.27199763 0.11046323 -0.042748902 0.11664199
0.76524276 0.16683936 -0.1988263 -0.54807514 0.381532 -0.47215295 0.0210878 0.32015315
0.249628 0.13059418 -0.1384224 0.0032720268 0.20826423 0.2042298 -0.11161436 0.23526049
-0.19538128 0.07613787 -0.019025177 -0.20362535 0.020644963 -0.015287414 0.056964546 -0.10095629
0.025842667

fc2.bias f4 [15]
00000000: a2ae 7a3e 56b0 bd3e cda4 933e a666 e5be
00000010: 0907 9e3e 86b9 033f d096 d2bd bd0c 0b3e
00000020: 5afe 43be 9e00 8a3e 59bf ca3e 9dbf c63e
00000030: 517b 86be 7ef2 b93e 2ae7 54be
0.2448068 0.37048596 0.2883667 -0.44804877 0.30864742 0.5145496 -0.102826715 0.13579078
-0.19139996 0.26953596 0.39599112 0.38818064 -0.26265958 0.3631782 -0.20791307

out.weight f4 [1, 15]
00000000: 95cf 803e 7925 74bf 98c5 25bf 67ef 2fbf
00000010: 0701 f93e 71f1 f23e 0783 08be bc85 a2be
00000020: 9aa6 6cbe c87a 9fbe 5074 7e3e 2d31 ce3e
00000030: ca23 31bf 4e0d 3cbf 681b 1e3e
0.25158373 -0.9536968 -0.6475463 -0.68724674 0.48633596 0.4744983 -0.13331233 -0.31742656
-0.23110428 -0.31148362 0.24849057 0.40271893 -0.69195235 -0.734578 0.15440142
