models/2d_static_classifier_5_epochs.pth (torch, 4900 bytes, 5 tensors)

fc1.weight f4 [15, 15]
00000000: 76c6 a13e 8cba 703e 2ee9 a73e f306 c93e
00000010: 7153 883e 549e 69be aadf 183e d658 753d
00000020: b28e 463c bc51 83bd 2042 433e c4d3 45bd
00000030: df69 513e d344 0dbe 3e23 a2bc 750a 653e
00000040: ff18 7a3d 1b7e b6bd 91d0 40be b761 533d
00000050: fa98 303e db74 d73d 88d4 523d 2876 253e
00000060: 05f9 093c fb04 373e ade3 973b f026 bcbd
00000070: b065 c53d 691a 783b 34a2 9bbd fd17 ca3e
00000080: 370b 623e 6c0a 6f3e 7de5 b6bc a930 a63c
00000090: e402 41bd 31a9 653e 752c bc3d 79c5 783e
000000a0: ff34 273d 10f5 663e 3961 703e 602d 93bd
000000b0: 8b57 8fbd 588d 9f3e 16dd 043a cca1 d23e
000000c0: a273 513e 3a8f e93e 6957 423e 9278 00bd
000000d0: ed37 d03d dafb 2f3e a4ae 01be 3f57 843d
000000e0: c217 393e bb14 603d d18f c43d e90d c93d
000000f0: d161 92bd f079 be3e 3654 7fbd 988e b13e
00000100: 9faa c33e f5bf 893d 0aa7 acbd 6623 75be
00000110: 9cbe 1bbe 49cf 573e e391 253d 4061 193e
00000120: 4736 e23d c2fc 443e acf3 06be 25e8 e63d
00000130: a893 3c3e 702b 5fbd f9c3 13be 0065 893e
00000140: 19f7 7b3d c3fc 5dbd ffe8 23be 0cde 80bd
00000150: 8905 e23d ba28 3b3e 05db 5d3e 40a2 803e
00000160: 1859 8e3e 9b51 683e 0e67 f2be 5282 b5be
00000170: 08d9 79be a917 fabd d998 c5bd 8439 473e
00000180: 0253 153e 8079 2c3e 2d38 633d 7ee2 7f3e
00000190: 9c57 00be e842 a73e 34b6 d43c 98ba 5e3e
000001a0: 845e c8bc 9354 7a3e 6e37 52bd f8db bb3d
000001b0: eb6a a93e f9b5 503d 4245 8ebd 3dfe 943d
000001c0: a0d1 7bbc b807 0d3e 7c0b 39bd 2641 93bc
000001d0: 9ba9 383e 45e4 d5bd c75f c23d 060f 8c3e
000001e0: 31b4 f8bd ff41 1a3e 70fd 463c 899c f2bd
000001f0: 2d2e 07be c17c a4be 200e 22be 7623 e63d
00000200: d6d7 8bbd 220d df3d f224 903c cabd 9f3d
00000210: a689 663e 1f70 98bc ded6 aabd d987 71be
00000220: 11cb 37be 262a b4bd d85e 8d3d d658 493e
00000230: 8043 87bb 90b9 f4bc 803e 8dbb 907a 2fbe
00000240: 70fa 63be e046 b93c 42b2 5abe 36f6 f6bd
00000250: 6061 933d f227 9bbd 172e a0be f463 5b3d
00000260: c41e f5bd 5c2f c4be f0b5 c0be 5f6c 92bd
00000270: 233f f53d b149 333d f3bf 8e3e 6a9e 913d
00000280: 2b78 653e a30c 293e d294 693e d505 a43d
00000290: 43d8 8c3e a34e cc3e 489d 953d cd96 ab3e
000002a0: 7c68 0c3e 1e47 d23e 6d0a 89bd ae4b 0bbe
000002b0: 909f 413d d281 0d3e 206d 93bd c210 b5bd
000002c0: 6186 b3bd 6ab6 37bb bb88 18be 94f2 a1bd
000002d0: c92e 1ebe b98b 7c3e 6332 0d3d 1f61 01be
000002e0: 5592 e9bd 5728 2f3d c128 833d babc b93d
000002f0: 8cfb 433e 52c4 8ebe d59f 5c3d 3b18 d4bc
00000300: 518e 3c3e 6a09 cdbd 5923 c7bd a67f ffbe
00000310: 9f74 a9be acac 14be 1f6a 83bd a9f0 9bbe
00000320: 8d4d e13c 59fb 193d 8f1a 403c 1526 663e
00000330: e28a 783e ab80 303e 8f60 8d3d f64f 513e
00000340: fdfd 7e3e 0388 c73d 2f33 1cbe cccc 57bd
00000350: 2613 91be e3c4 063e f411 133e 6b38 0fbe
00000360: 90c2 1fbe b22c 933c 444e 18be fce5 c73c
00000370: 9118 dc3d d184 023e b681 1f3e 9e9f a23d
00000380: c684 d23d
0.31596726 0.23508662 0.3279509 0.39263114 0.2662616 -0.22814304 0.14929071 0.059899174
0.012118982 -0.06412074 0.19068193 -0.04829766 0.20450543 -0.13795786 -0.019792195 0.2236727
0.061058994 -0.089107715 -0.18829562 0.05160686 0.17245856 0.10520335 0.051472217 0.16158354
0.008421187 0.17872994 0.0046352954 -0.09187114 0.09638536 0.0037857539 -0.07599297 0.39471427
0.2207459 0.2334382 -0.022326225 0.020286875 -0.047121897 0.22427823 0.09188167 0.2429408
0.040822025 0.22554421 0.23474588 -0.07186389 -0.06999119 0.31162524 0.0005068345 0.41139066
0.20454267 0.45617086 0.18978657 -0.031364985 0.10166917 0.17185917 -0.12664276 0.06461953
0.18075469 0.05470727 0.09597743 0.09817106 -0.07147563 0.37202406 -0.06233617 0.34679103
0.3821611 0.06726066 -0.08430298 -0.23939285 -0.1520943 0.21075167 0.04042233 0.14978504
0.11045509 0.19237044 -0.13178891 0.11274747 0.18415701 -0.054484785 -0.14430226 0.2683487
0.061514948 -0.05419613 -0.1600685 -0.06292352 0.11036212 0.18277255 0.2166558 0.25123787
0.27802348 0.2268738 -0.4734425 -0.3545099 -0.24399197 -0.12211544 -0.09648294 0.19455534
0.14582446 0.16843224 0.055473495 0.24988744 -0.1253342 0.32668233 0.025965787 0.21750867
-0.024459131 0.24446325 -0.051322393 0.09172815 0.33089384 0.050954793 -0.06946804 0.072750546
-0.015369803 0.13772476 -0.045176968 -0.017975401 0.1803345 -0.104439296 0.09490924 0.27355212
-0.12143744 0.15064238 0.012145385 -0.11846263 -0.13201208 -0.3212643 -0.15825701 0.112372324
-0.06828277 0.10891177 0.017595742 0.07799871 0.22513446 -0.018608151 -0.08341764 -0.23586978
-0.17948557 -0.08797102 0.06902856 0.19662794 -0.0041279197 -0.02987364 -0.004310429 -0.17136598
-0.22263503 0.022616804 -0.21357062 -0.1205868 0.07196307 -0.07575978 -0.31285164 0.05356212
-0.11968759 -0.38317382 -0.37638807 -0.071495764 0.11974933 0.04377145 0.2788082 0.07110293
0.22409122 0.16508727 0.22810677 0.08008925 0.27508745 0.39903745 0.0730539 0.3351349
0.13711733 0.41069883 -0.06691442 -0.13603088 0.04727131 0.13819054 -0.07198548 -0.08841087
-0.08765865 -0.0028032311 -0.14895909 -0.07907596 -0.15447535 0.24662675 0.03447188 -0.12634705
-0.11404864 0.04276308 0.064042576 0.090692 0.19138926 -0.27884156 0.053863365 -0.02589046
0.18413664 -0.10011561 -0.09723539 -0.49902076 -0.33096787 -0.14518994 -0.06416725 -0.30457047
0.0275028 0.03759322 0.011725082 0.22475465 0.2427173 0.17236583 0.06903183 0.20440659
0.24901576 0.09742739 -0.152539 -0.052685544 -0.28334922 0.13161044 0.14362317 -0.13986365
-0.15601563 0.017965648 -0.14873606 0.024401657 0.10746873 0.12745978 0.15576825 0.07940601
0.10279231

fc1.bias f4 [15]
00000000: c0dd 54be 7cff 463e 48a3 8f3e bc7a 4b3e
00000010: 1730 7e3c 0f28 203e da2f c93e d656 34bd
00000020: a493 94be 0a2a 84be e42f 0e3e e980 9fbe
00000030: 7f07 30be e625 e93e 419b 6abe
-0.20787716 0.19433397 0.2805426 0.19871038 0.015514395 0.15640281 0.3929432 -0.044028126
-0.2901889 -0.25813323 0.13885456 -0.31153038 -0.1719036 0.45536727 -0.22910787

fc2.weight f4 [15, 15]
00000000: da60 e4bd d16d c23d f9f2 68bd 6aaf 6c3b
00000010: c561 22bd e463 163d e167 973d 39e1 453e
00000020: 9ffb 463e 8a33 533e 801e 07be a045 92be
00000030: 4661 e23b 7182 7d3d 07d6 553e 5458 90be
00000040: a96f 7d3e 0c81 0dbe b505 57be bf41 8ebe
00000050: 64a6 62be 25f1 c43e 2e63 6ebe bfdd f93d
00000060: 5267 0b3e 1011 f53e 41f6 b8bd 66c1 93be
00000070: 9a78 db3e 05e1 fa3c 92b2 17be 8425 873e
00000080: e0ca 243e 3af7 19ba 2c29 20be 4db1 923e
00000090: 44f3 093e 09ac 453e d802 24be 8cb7 e63d
000000a0: 4a94 5a3e 92c0 09bf 42bb 46be 5e07 323e
000000b0: d116 09be 05b8 efbd bba8 963e 4011 f23c
000000c0: 0be7 923e b49d 8e3e 7463 843e 9787 67bd
000000d0: d94a 213d f04f 783d 409f d93d 2fa2 bb3d
000000e0: a9b6 27be 99c7 0f3e 2e29 bc3d 583d 6abe
000000f0: 18df 7cbe 7d65 ae3d 312f 4dbe 8a0f d8bc
00000100: 82d0 c2bd d962 7a3d 74ff c83c 2033 393e
00000110: 3000 f6bc 9032 febd e882 463e 217c b3bd
00000120: 97ee 613d 9937 0d3d d3e9 593e c9b1 183e
00000130: 0e7a 3fbc 5295 f6bc 4d3f 9b3d 2002 89be
00000140: d531 243e b35e a3be 0e53 3cbc 24f0 1c3e
00000150: 2647 17be c0c8 65be c50f 753e b743 99be
00000160: e360 0fbe 8a37 3bbe e7b3 c0be 685f 57bd
00000170: 73fa a2bd 781f 36be 416a 8dbe 2db5 9c3d
00000180: e84c 8f3e 689d 30be dc6b 72be 1285 5f3e
00000190: 553c c63e c687 b3be 1672 90bd 83de c33e
000001a0: 9ae4 a63b 8a1a 2ebd 0755 213e 92a5 7ebe
000001b0: 6828 4bbd 95cd 7f3e 9d00 54be 4e92 8bbd
000001c0: 97d6 1fbe fa14 b4bd 02a8 2fbe 300b a83d
000001d0: c941 32be 0342 823d 020e 03be 1982 7f3e
000001e0: 7251 d8be 50ff 533e 6923 02be 51e7 18be
000001f0: e194 5e3d 9361 24bc fcb2 ae3e c603 65be
00000200: 66e1 92be 9464 d5bd b5c1 ca3e 7606 77be
00000210: 4f22 df3c a728 c33e 81d5 98bc 4df0 9f3e
00000220: 5d44 3e3e 1ade 1f3e 2a45 843e f7fd 1c3e
00000230: 4711 d33d 30a6 efbe c1f8 94bc 030d 94be
00000240: 44b8 cd3d 55aa f6be 574b 263f aa87 93be
00000250: ec45 08bf 6ca9 20be 21ee 65be 904e 643e
00000260: 8ef2 943d 3667 7e3e e029 3f3e 6331 a93d
00000270: c58d 393d de7d fdbc 0cdc 7a3e f8a9 103e
00000280: 1612 ab3d 5058 6ebe 6b5b 5bbc 60e9 643e
00000290: 56b8 ff3d 16e6 82be 603f 093e fd3b 123d
000002a0: 71af 2cbd 2e97 8ebe f096 a4bd 60ab f9bd
000002b0: a572 0dbe 6c81 82bd b8f3 bb3d 8770 12be
000002c0: ebe9 f4bc ef28 96be 8010 35be f7a5 163e
000002d0: ceae 6fbe 35fe a33e 1578 463e 4ecd 983c
000002e0: 6476 1e3e 385b 5c3e e4c2 08be d4f6 873e
000002f0: 769c b7bd a0fa 223c bb14 613e ce5c d7be
00000300: 281f 783e 282f 0c3e 60bb 573e 2f63 6bbe
00000310: 7652 0c3e b049 54bc cee2 f4bd c817 673d
00000320: c1c9 56be 240f e7bd 3e9f 153e f4e3 02bd
00000330: 9422 533e 2064 59bd 2f9a 59be c405 63bd
00000340: ccd3 2cbe 2a45 443e e03e 8fbd e9f6 a03e
00000350: 85e3 643e 050c 983d a5c6 21be 8073 983d
00000360: 39e5 203d 2efa d4bd f8e9 823e fe9e 2c3e
00000370: ea8e 0abe 09f9 06bf 127c 943e 4dbd a2bd
00000380: 784c ed3d
-0.111512855 0.09493602 -0.05687234 0.0036115297 -0.03964402 0.036716357 0.0739286 0.19324197
0.19431923 0.2062513 -0.13195229 -0.28568745 0.0069085686 0.061891977 0.20882426 -0.2819239
0.24749626 -0.13818759 -0.20998271 -0.27784535 -0.22133785 0.3846523 -0.23280022 0.12200498
0.13613632 0.4786458 -0.09031344 -0.2885849 0.4286545 0.030624876 -0.14814213 0.2639581
0.16093016 -0.00058733264 -0.15640706 0.28650895 0.13471705 0.19303907 -0.1601671 0.112654775
0.2134563 -0.53809464 -0.1940737 0.17385623 -0.1338761 -0.11705021 0.29425606 0.029549241
0.28691897 0.27854693 0.25857127 -0.056525793 0.03937802 0.06062311 0.10626078 0.091617934
-0.16378273 0.14040984 0.09187542 -0.22874963 -0.24694479 0.08515451 -0.20037533 -0.026374597
-0.09512426 0.061129425 0.024535872 0.18085909 -0.030029386 -0.12411988 0.19385874 -0.0876391
0.055159178 0.03447685 0.21280603 0.1491157 -0.011686815 -0.030100498 0.07580433 -0.26759434
0.16034634 -0.31908187 -0.011494411 0.15325981 -0.14773235 -0.22439861 0.23931797 -0.29934475
-0.14001803 -0.18282905 -0.37637255 -0.05258122 -0.07957926 -0.17785442 -0.27620128 0.07651744
0.27988362 -0.17247546 -0.23673958 0.21828106 0.38717905 -0.35064524 -0.0705301 0.382557
0.0050931694 -0.04250578 0.15755092 -0.24867848 -0.04959908 0.24980767 -0.20703359 -0.06815015
-0.15609203 -0.087930635 -0.17153934 0.08205259 -0.17407908 0.06360247 -0.12798312 0.24951972
-0.42249638 0.20702863 -0.1270882 -0.1493199 0.0543412 -0.010033029 0.3412093 -0.2236472
-0.2868759 -0.104195744 0.39600912 -0.24123558 0.02723804 0.38116953 -0.018656494 0.31238022
0.18580766 0.15612069 0.25834018 0.15331255 0.1030603 -0.46806479 -0.018185021 -0.28916177
0.100449115 -0.48176828 0.6495871 -0.2881444 -0.5323169 -0.1568963 -0.2245412 0.22295594
0.07272826 0.2484406 0.18668318 0.08261373 0.045301218 -0.030943807 0.24498004 0.14127338
0.08353059 -0.23275876 -0.013388495 0.2235465 0.12486331 -0.25566167 0.13403082 0.03570174
-0.0421595 -0.27849716 -0.080366015 -0.1219089 -0.13813265 -0.063723415 0.09177345 -0.14300738
-0.029896697 -0.29328105 -0.17682076 0.14711748 -0.23406526 0.32029882 0.19381745 0.018652584
0.1547485 0.21519172 -0.13355595 0.26555502 -0.089653894 0.009947449 0.21980564 -0.42062992
0.24230635 0.13689864 0.21067572 -0.22987054 0.13703331 -0.012957022 -0.11957322 0.056419164
-0.209754 -0.11282185 0.14611527 -0.031955674 0.2061866 -0.053074002 -0.21250223 -0.05542542
-0.16877669 0.19167009 -0.06994414 0.31438377 0.22352417 0.074241675 -0.15798433 0.07443905
0.039281104 -0.103992805 0.2556913 0.16857526 -0.1353108 -0.5272375 0.29000908 -0.079462625
0.11586851

fc2.bias f4 [15]
00000000: 6bbb 533e 0061 a73e e8e0 863e 167b 84bd
00000010: 3f69 87be b444 063e 7721 7d3e 613a 143e
00000020: 3ded f63b 2341 c2be 0fb4 013e 1f53 903d
00000030: 1384 01bc 246d 35be bfe0 213c
0.20676963 0.32691193 0.26343465 -0.06468789 -0.26447484 0.13112146 0.24719797 0.14475395
0.007535605 -0.3794032 0.12666343 0.07047104 -0.007905024 -0.17717415 0.009880244

out.weight f4 [1, 15]
00000000: 61fd 693e c644 17bf 5f54 0d3e 857c 893e
00000010: 54b8 533e 18ae b1bd a51b 39bf 9c74 8e3d
00000020: b77d 09bf b717 18bf 0898 cd3d 7543 c1bd
00000030: db69 5b3e a001 003d 10fc c23e
0.22850563 -0.59089315 0.13801716 0.26852813 0.20675784 -0.08675784 -0.7230781 0.06955835
-0.5370745 -0.59411186 0.10038763 -0.094366945 0.214271 0.03125155 0.38082933
