models/2d_static_classifier_10_epochs.pth (torch, 18132 bytes, 7 tensors)

fc1.weight f4 [64, 15]
000000 46 2d c2 be e1 bd 82 be cf 0d e8 be 4a 55 ae be
       -0.37925166 -0.2553549 -0.45323035 -0.34049445
000010 d1 20 ab bd 0b 02 89 bc 1f c8 25 be 01 75 10 3e
       -0.083558686 -0.016724607 -0.16189621 0.14107133
000020 2b b2 32 3e 33 7e 7a 3d 20 ed 58 bd 7f ff 22 3e
       0.17450778 0.06115551 -0.052960515 0.15917777
000030 b0 3e f7 3c 36 12 84 3e b7 a7 4b 3e 2e fa 8b bd
       0.030181259 0.25795144 0.19888197 -0.06834827
000040 09 49 37 3e 1f e5 4a be e1 0d 31 3e 4b 8d 4b bd
       0.17898954 -0.19813965 0.1729045 -0.049695294
000050 4f e3 4f bd fa e9 58 3e 1f b1 96 3d d0 f6 aa bd
       -0.050753888 0.21183005 0.07358002 -0.08347857
000060 f9 81 7b bd 27 67 19 3e b9 56 65 be 94 e6 f2 bd
       -0.06140325 0.14980756 -0.22396363 -0.118603855
000070 5a 3d e1 3c 06 e8 17 3e dc 52 c8 3e 88 22 03 3e
       0.027495075 0.14834604 0.39125717 0.12806141
000080 9d 68 5e 3e 78 8f 46 3e 3a 86 a6 3e aa 76 47 bc
       0.21719594 0.19390666 0.32524282 -0.012174288
000090 f1 bb 4c bd 60 12 b1 bd 4b 2c 9f bd c8 50 01 be
       -0.049983922 -0.08646083 -0.0777212 -0.12628472
0000a0 3a eb e7 3b e8 a5 73 3d 6c b7 3a bd 89 6c c1 bd
       0.0070776017 0.059484392 -0.04558508 -0.094445296
0000b0 48 4b 2b 3c 43 82 40 be 7d 2e 8a 3d f7 6d 30 3e
       0.01045496 -0.18799691 0.06747148 0.17229448
0000c0 8d e9 8c be 3a e6 fd bd 49 0f 6a 3e eb a6 2d 3e
       -0.27521935 -0.12397428 0.22857393 0.16958205
0000d0 ac b4 2e bd 0f 73 1a be 11 68 cc 3d 5c 63 18 be
       -0.04265277 -0.15082954 0.099807866 -0.14881653
0000e0 3f 1c d0 3d b2 58 4f be d8 96 26 bd ed 1d e7 bb
       0.101616375 -0.20248678 -0.0406712 -0.007053128
0000f0 a3 c5 80 be 31 5b 68 ba 18 46 d1 3d 9e f7 e3 3d
       -0.25150785 -0.0008863686 0.102184474 0.111312136
000100 7b 7c a1 be 2c fb 53 be 6b 51 67 3e a7 6f 6d 3e
       -0.31540284 -0.20701283 0.22589652 0.23187123
000110 2d 43 ea bd 80 27 ee bd 08 79 d8 bd f3 f5 7b 3e
       -0.11438594 -0.11628628 -0.1056996 0.24605541
000120 f6 0f 70 3e 47 f6 5c be 77 8d 2a be 49 49 03 bd
       0.23443589 -0.21578322 -0.16655527 -0.032052312
000130 22 8b 1c be 70 db 3b 3d c2 56 5c 3e bc 06 4d 3e
       -0.1528745 0.04586357 0.2151747 0.200221
000140 30 bf c6 bd 0f 31 26 3e ab 62 4d 3e b2 a9 86 3e
       -0.09704435 0.16229652 0.2005717 0.26301342
000150 6f fb 67 be 20 20 42 be 5f 82 1a 3e eb 10 48 3e
       -0.22654508 -0.18957567 0.15088795 0.19537704
000160 10 b4 1a be 3d 03 16 be 34 f6 49 be 34 9d 32 be
       -0.15107751 -0.14649673 -0.19722825 -0.1744278
000170 f5 09 57 be af 3f 0f 3d 86 ca 47 bc 8d f4 59 3e
       -0.20999892 0.034972843 -0.012194281 0.21284695
000180 e4 31 42 3e 39 b5 b4 bd 22 71 94 bd ae aa 01 3e
       0.18964344 -0.08823628 -0.07248141 0.12662765
000190 70 0b 41 be d5 f4 8c be d1 79 7b be a7 f1 38 3e
       -0.1885202 -0.27530542 -0.24558188 0.18060933
0001a0 e6 ca 69 bd cd 3c fb bd cb 9e 0f be 19 b2 04 bc
       -0.057078265 -0.12267456 -0.14025418 -0.008099102
0001b0 ba bd 7c bd 5f 32 03 be 07 3e cf 3d c4 54 d3 3d
       -0.061704375 -0.12812184 0.10119253 0.10318902
0001c0 ac 29 98 bd ca 6f 32 3e 7b 98 88 bd b7 39 0e be
       -0.07429823 0.17425457 -0.06669708 -0.13889204
0001d0 e7 d0 13 be 8c 8d e0 3c ca 80 8d bd a2 59 ce bd
       -0.14435159 0.027411245 -0.0690933 -0.1007569
0001e0 14 c8 09 3e ea c6 46 be d0 cb 9a 3d 7e 2b 73 be
       0.1345523 -0.19411817 0.075584054 -0.2374706
0001f0 f0 21 c6 bc 19 60 13 bd a0 ed 89 bd 21 0c a8 bc
       -0.024186105 -0.035980318 -0.067347765 -0.020513596
000200 be ed 46 3e bb 31 d8 3d 7e e6 06 be 50 69 9c 3c
       0.19426629 0.1055636 -0.13173863 0.019093186
000210 f9 18 a2 3d 54 e5 3d bd ab 35 29 3e e0 c0 ab bd
       0.079149194 -0.046361282 0.16524379 -0.08386397
000220 e8 02 a5 3d e9 4e 25 3d c8 ce 41 bd 6b ed 2b be
       0.08057195 0.040358458 -0.047316343 -0.16789787
000230 c7 b9 af 3d 8f 4e 0e 3e e9 ed 3b bd 0a c2 c1 bc
       0.08580356 0.13897155 -0.045881186 -0.023652095
000240 5b 8e 73 be 06 ce a7 3d 10 98 6e 3e 35 83 03 be
       -0.23784773 0.08193593 0.23300195 -0.1284302
000250 02 16 8e 3c 14 c8 59 bc c1 ab 92 bc 11 da 06 be
       0.017344479 -0.013292331 -0.017904164 -0.13169123
000260 0d d0 4a 3e 42 92 8b 3e 24 02 77 3e 12 3b 0b be
       0.19805928 0.27260023 0.2412191 -0.13596752
000270 44 bc 02 3d 06 3d 4c 3e 9a 1e 8c bd 19 a4 d4 bc
       0.031917825 0.19945154 -0.06841774 -0.025957154
000280 9e 3b ef bd c9 20 a4 3d 8c 7f 21 bb 6c 48 7e 3e
       -0.11681293 0.08014066 -0.0024642674 0.24832314
000290 4c 2c a3 bd 81 f2 bb bd 6b d6 64 be 04 49 ca be
       -0.07967433 -0.09177113 -0.22347419 -0.39508832
0002a0 86 14 9f bc d0 38 4a bc 1a 63 f0 bd fe 46 f4 bd
       -0.019418966 -0.012342647 -0.11737652 -0.11927603
0002b0 5e d4 74 3e 59 6a 27 be f6 1b 17 bd 66 4a 78 3d
       0.23909137 -0.16349162 -0.0368919 0.060617827
0002c0 83 07 6e be 48 6f 57 3e 66 67 43 be 03 70 84 3d
       -0.23245053 0.21038544 -0.19082412 0.06466677
0002d0 7c 17 01 be 5b 1b 70 3e 30 0b 90 be 7b d6 2f 3d
       -0.12606615 0.23447935 -0.28133535 0.042929154
0002e0 13 5d 2b 3e eb 01 67 3e c2 ef 65 3e 0b 29 37 3e
       0.16734724 0.22559325 0.22454742 0.1788675
0002f0 a6 32 a9 bd 62 a4 25 be cc 15 2a 3e 93 e1 34 be
       -0.082616135 -0.16175988 0.16609877 -0.17664175
000300 c2 75 1a be 9a 60 d5 3d b4 87 5f be 8e 59 21 3e
       -0.15083984 0.10418816 -0.2182911 0.15756819
000310 3e 46 54 bd 3f cd 67 be b0 c9 4e 3e de ed 3a 3e
       -0.0518248 -0.22636889 0.20194125 0.18254802
000320 ec 42 7e 3d 58 cc 8a be 27 89 db 3d 80 91 3f be
       0.06207554 -0.27109027 0.10719519 -0.18707848
000330 32 ea 4d be 79 ad 35 bd c1 56 50 3e ea b6 5e be
       -0.2010887 -0.04435489 0.20345594 -0.21749464
000340 b6 e3 bb bd e3 4b 5c be dc 3c dd 3d 85 27 8e 3e
       -0.09174292 -0.21513323 0.10802624 0.27764526
000350 9d 06 67 3d 2b 09 57 3d 44 82 f9 bc 1f cf 76 bd
       0.05640279 0.052498978 -0.030457623 -0.06025612
000360 59 e3 3b be 04 13 07 3e 1a 9f 81 3e 81 89 93 bd
       -0.18348445 0.13190848 0.25316697 -0.07203961
000370 cd a9 be 3d b3 01 44 3b 9c 68 a8 bd 55 64 20 be
       0.09309731 0.002990824 -0.08223078 -0.15663274
000380 2b 0b 88 3d 8c 8d c3 3d a0 92 98 3c 5e b4 57 be
       0.06642755 0.09548482 0.018624604 -0.21064898
000390 33 d9 70 be 90 2d d3 3d 40 d8 ac 3c 5a 41 33 be
       -0.23520355 0.10311425 0.02109921 -0.17505398
0003a0 0c 37 1d bd 60 25 2a 3c ac 92 b0 bd c0 8a 72 3c
       -0.038382575 0.010384887 -0.086217254 0.014803588
0003b0 3e 1f 3e be ae 61 78 be 55 2b 82 3e 38 20 e7 bc
       -0.18566605 -0.24256012 0.25423685 -0.028213605
0003c0 79 98 9d bd 65 5b f7 bd e6 cb 26 3e 18 c8 8e be
       -0.076950975 -0.12077979 0.16288719 -0.27887034
0003d0 dd d8 97 bd df 1d 57 be f5 16 96 3d 3e 98 18 be
       -0.0741441 -0.21007489 0.073285975 -0.14901826
0003e0 b5 75 f6 bd 8a 47 10 3e df a8 e3 3d 1b ff 48 be
       -0.120341696 0.1408979 0.11116194 -0.19628565
0003f0 58 23 15 be e4 a3 2b be 97 83 dc 3d f1 f5 19 be
       -0.14564264 -0.16761738 0.10767286 -0.15035225

fc1.bias f4 [64]
000000 c7 fb b3 3d ac 79 21 be 48 3e e3 be 51 1f 58 3e
       0.08788257 -0.1576907 -0.44383454 0.21105696
000010 fe 90 cb bd ea 5b 86 3e d3 3a 17 3e eb 3f 3b be
       -0.099397644 0.26242 0.14768533 -0.18286102
000020 36 b0 4f 3e a1 be 35 3e e1 a2 47 3e 65 bc c5 3e
       0.20282063 0.177485 0.19495727 0.38620296
000030 18 13 12 bc fc cd 22 3e 2f e3 78 3e e6 c6 53 be
       -0.008915685 0.1589889 0.24305414 -0.20681342
000040 67 e2 30 be 78 e7 c3 be 01 7f d1 3e 7a 25 64 be
       -0.17273866 -0.38262534 0.4091721 -0.22279921
000050 91 4d 60 3e 18 3a 97 be 41 5c a2 be 84 da f2 3a
       0.21904589 -0.2953651 -0.3171101 0.0018528257
000060 91 de 92 3e 56 2d c8 bd 48 07 25 3e c9 b3 42 3d
       0.2868543 -0.09774272 0.16116059 0.047534738
000070 ab ac 89 3e 1f 50 49 3e 8f 91 92 bd 85 d6 ac 3e
       0.26889548 0.1965947 -0.07156669 0.33757415
000080 eb f6 a4 3e 68 b8 56 be a8 f7 ce bb 44 40 96 3e
       0.32219633 -0.20968783 -0.006316144 0.29345906
000090 a4 50 7d 3e 64 38 a3 3d ea 4f 68 be 5f d4 f1 3d
       0.24737793 0.0796974 -0.22686735 0.11808085
0000a0 b2 f0 c9 bd 32 e0 35 3e d0 ba b1 3d 6a d2 98 bd
       -0.09860362 0.17761305 0.0867821 -0.07462008
0000b0 de 6b 2d 3e ed 32 f7 bd 02 1c 4a 3e 9f c5 69 be
       0.1693568 -0.1207026 0.19737247 -0.22829293
0000c0 45 ce 9b be eb 1e a9 3e 01 60 26 be 8c c6 0f 3b
       -0.3043081 0.330314 -0.1624756 0.0021938412
0000d0 5c da 7c be 0a 60 99 3e 77 59 2b be 9e 3c 55 be
       -0.24692672 0.29956084 -0.16733347 -0.20823905
0000e0 d9 74 fe be 30 f3 82 3e 96 a2 83 3e 07 cf 14 bf
       -0.49698523 0.25576162 0.2570998 -0.581284
0000f0 be f7 98 3e 56 d8 36 3e ea 1f 38 3e 37 20 86 3e
       0.29876512 0.17855963 0.17980924 0.26196453

fc2.weight f4 [32, 64]
000000 69 cf 91 be 8c bc 08 be 73 15 4b be 13 f6 87 3d
       -0.28478554 -0.13353175 -0.19832401 0.06638732
000010 99 34 18 be 08 1f 13 3e 86 90 d6 3d 3e 68 db bd
       -0.14863814 0.14367306 0.104767844 -0.10713242
000020 e9 f6 16 3c 5a c3 e4 3a ed 87 29 3e a3 02 88 be
       0.009214141 0.0017453239 0.16555758 -0.26564512
000030 12 ea db 3c 95 5a 55 bd 3b 04 10 3d c8 51 94 bd
       0.026845012 -0.05208834 0.035160284 -0.07242161
000040 14 85 85 bc ff 19 c3 bd fd a8 7e be 10 6c 60 bd
       -0.016298808 -0.09526443 -0.24869151 -0.054790556
000050 93 05 3f be b1 43 99 3d f7 31 cd 3d 93 d3 cc bc
       -0.1865447 0.07483614 0.10019296 -0.02500323
000060 31 27 22 3e c7 69 f6 bb a6 5b 8d bd a4 54 e3 3d
       0.15835263 -0.007519934 -0.06902246 0.11100128
000070 9d ac 0e 3d 82 59 b2 3c f3 70 bd 3d 3c 18 e6 3b
       0.034832586 0.021771196 0.09250059 0.007021932
000080 96 77 9d 3c be 7d eb 3d ec 4c a8 3d 16 d4 e6 3d
       0.019222062 0.11498593 0.08217797 0.11270921
000090 2d e7 be 3d 13 d6 96 be 45 0b 87 3d 26 9e 63 be
       0.09321437 -0.294602 0.06593946 -0.22228298
0000a0 d9 5e 39 bd 42 54 c5 3d d8 c6 cd 3c 45 27 a6 bd
       -0.04525647 0.096352115 0.02511923 -0.08112959
0000b0 72 01 af bd f6 11 56 be 63 d4 05 be ca f8 99 bd
       -0.085451975 -0.20905289 -0.130693 -0.07518156
0000c0 b6 c5 6a 3d 6b 5f 84 bc 60 13 05 be 9d cc 77 bd
       0.057317458 -0.01615878 -0.12995672 -0.06049787
0000d0 55 69 1a 3d 02 14 4a 3d ec 71 47 3d 08 ca d4 bc
       0.03769811 0.049335487 0.04869263 -0.025975242
0000e0 d2 db d0 be df bd 2a be 8d 24 6f be a5 8a 8c be
       -0.4079271 -0.16673993 -0.23353787 -0.27449527
0000f0 6f 88 46 be a2 cc ce 3d ee c0 cc 3d 7b 99 c0 be
       -0.19387983 0.10097624 0.09997736 -0.37617096
000100 00 99 7d be ce 11 b1 bd 6c 12 a0 be 68 95 93 bc
       -0.24765396 -0.08645974 -0.31264055 -0.018015578
000110 58 a7 60 bd 97 1d 6e 3d 37 38 a6 3d fe 3f a8 bc
       -0.05484709 0.058133688 0.08116191 -0.020538326
000120 cd 5c 5d 3d 43 bd 74 3d d3 cc 09 3d 07 b5 61 be
       0.05404358 0.059750807 0.0336426 -0.22041713
000130 a2 16 ae bd d5 9e 03 3e 85 68 ed 3d 80 7d 65 3b
       -0.085004106 0.12853558 0.11592201 0.003501743
000140 d1 04 2d bd 6d c1 6e be 10 77 9a be 20 e1 fd 3c
       -0.04224092 -0.23315974 -0.30168962 0.030991137
000150 a6 a9 5e be f3 5d 93 3d e7 b8 0a 3d 32 d6 2c bd
       -0.21744403 0.07195654 0.033867743 -0.04219646
000160 49 75 e7 3d 9a d0 89 bd 30 a8 52 bc 24 c3 53 3d
       0.11301667 -0.06729241 -0.012857482 0.051699772
000170 7c 10 34 3c a6 3c 53 bd 17 bd 1e 3e eb a3 f0 3b
       0.010990258 -0.05157151 0.1550182 0.0073437593
000180 eb 1d 03 3e 30 e3 2b bd f4 be 06 3e 0c e3 9c bd
       0.12804382 -0.04196471 0.1315878 -0.07660493
000190 c0 71 f2 3d 18 e7 6c be 42 b1 47 3d c7 6d 7e be
       0.11838102 -0.2313503 0.04875303 -0.24846564
0001a0 8a 90 a2 bd e3 d1 23 bd 3d 60 cf 3c 57 7e 51 ba
       -0.07937725 -0.039995085 0.025314445 -0.00079915434
0001b0 3b de 9a bd 3d 32 6e be f2 60 9a be 18 64 ac bd
       -0.07561918 -0.23261352 -0.30152088 -0.08417529
0001c0 9e 4e 14 3d cc 04 a8 3d f2 3a 5b bd fe eb c2 bd
       0.036207788 0.0820404 -0.05352301 -0.09517668
0001d0 04 46 78 3d 60 e4 b3 bd b0 f3 a0 3d a0 2c 58 bd
       0.060613647 -0.087837934 0.0785898 -0.052776933
0001e0 6f bb f7 be 8a ee 7a be 3f 4b 03 bf 42 a0 e4 be
       -0.48385188 -0.24505058 -0.5128669 -0.44653517
0001f0 1b a7 2e be 31 81 2a bd 66 23 e8 3c 9f 7d d9 be
       -0.17055933 -0.041627113 0.028337192 -0.42478654
000200 a8 2c d3 bd 39 83 93 bc 6c 0b bc 3d e6 bb 33 3c
       -0.10311252 -0.018006908 0.09181866 0.010970091
000210 c0 a1 a6 bd 7e cf 9e bd 2a d3 d8 3d 3c 48 0c bd
       -0.0813632 -0.0775442 0.10587151 -0.034248576
000220 ab 23 8d bd 7c 5e aa bd b7 2e f0 bd 7e 73 96 3d
       -0.06891569 -0.08318803 -0.1172766 0.07346247
000230 31 22 96 3d 2f b8 e3 bd 90 2e 79 3d dc fd 35 3d
       0.0733074 -0.111191146 0.06083542 0.044431552
000240 2e 08 91 3d 1b 21 02 3c 78 cf f7 bd 30 a5 91 3d
       0.07081638 0.007942463 -0.121001184 0.07111585
000250 ca 92 a2 bd 36 ff cc bd bc a6 77 bc 9b 6b 50 3c
       -0.07938154 -0.10009615 -0.015115436 0.012720968
000260 8a ce 27 3a 42 e7 18 3e dd 99 cd bd 94 90 20 bd
       0.0006401321 0.14931968 -0.10039113 -0.03920038
000270 2b 30 b7 3d 25 87 97 bb 24 aa 4a bd df 85 33 bd
       0.08944734 -0.004624265 -0.049478665 -0.04382884
000280 21 e8 69 bd c0 98 59 3b c0 2a 73 3d 83 e7 dc bd
       -0.05710614 0.0033202618 0.05936694 -0.10786345
000290 fd 3f d3 3c 7e 92 8d bd ee 90 c1 bc 80 7a 2a 3d
       0.025787348 -0.06912707 -0.023628678 0.04162073
0002a0 d8 17 9d 3d 01 bd 56 3d 94 60 07 be 34 d6 5d bd
       0.076705635 0.052426342 -0.13220435 -0.05415936
0002b0 fa 48 d9 3d 04 c4 b9 3d a0 72 24 bd b6 a1 e1 bd
       0.10609622 0.0907059 -0.040148377 -0.11017172
0002c0 d3 76 8b 3c 15 2a a6 3d bc d2 05 bd 03 c2 12 3c
       0.017024433 0.08113495 -0.032671675 0.008957389
0002d0 2e 23 fd bd 87 32 55 3c 3d 72 51 bd 04 7c d4 bd
       -0.123602256 0.013012535 -0.051134337 -0.103752166
0002e0 7d 18 fc bd 0e 2b 8e 3d de 2c ac bd 75 6c 8f bd
       -0.12309358 0.06941806 -0.08406995 -0.070031084
0002f0 be 8e 10 bd b2 13 69 3d d2 6e 04 be 1a f2 ab bd
       -0.03529238 0.05690355 -0.129329 -0.083957866
000300 4d 1a fd 3d f3 6e ea 3d 6f 3f 9e 3e 2b bc 73 bd
       0.12358532 0.11446943 0.3090777 -0.059505623
000310 19 54 e8 bc a8 84 f6 3d 7f d3 e9 3d e3 d1 d8 3d
       -0.028360413 0.12037021 0.11417293 0.10586908
000320 7e c4 1a 3e d3 0c 90 bd 4f 10 73 bc b6 d9 de 3e
       0.15114018 -0.07033696 -0.014835431 0.43525475
000330 fc ee 68 3d 1d 7d 84 bd 41 e0 97 3d 80 ed fb 3a
       0.05686854 -0.06469176 0.0741582 0.0019220561
000340 fe d5 b2 3d ba 97 97 3e 46 84 a8 3e 40 16 1f 3c
       0.08732222 0.29607946 0.32913417 0.009709895
000350 e1 e6 ac 3d 9b c4 2c 3d 0a a3 df 3d 1f 29 0d 3e
       0.08442474 0.042179685 0.10919769 0.13785218
000360 bd 43 42 bd 60 4a 04 3e f5 40 94 bd 00 2c a6 bd
       -0.04742788 0.12918997 -0.07238952 -0.08113861
000370 2e 99 3d bc 8d 94 b2 3d a7 04 91 bd 0b 42 0b 3e
       -0.011572165 0.0871974 -0.070809655 0.13599412
000380 07 8d 82 3d c4 9d 73 3d 48 45 02 3e 9e 78 9b bd
       0.06374555 0.05947663 0.12721741 -0.07591365
000390 ea 21 c1 bc 40 42 a6 3e b7 94 a9 3d 97 88 69 3e
       -0.023575742 0.3247242 0.08280318 0.22806011
0003a0 d8 e1 18 3d e2 2d 18 3e 05 41 e4 bc d0 93 b9 bd
       0.037324756 0.14861253 -0.027863035 -0.09061396
0003b0 bc 80 44 3e a7 84 40 3e a2 57 9a 3e a8 7c 0a 3e
       0.19189733 0.18800603 0.30144984 0.13524115
0003c0 9e 52 64 3e 53 a2 00 bd 03 ec 40 bd 6d 94 a3 3d
       0.22297141 -0.031404804 -0.04710008 0.07987294
0003d0 1c fa bf 3d 78 8f 92 bc 99 f3 5c 3e 38 f8 d1 bc
       0.093738765 -0.017890677 0.215773 -0.025631055
0003e0 be 9c 9a 3e 3e 5c 5f 3e 4a 1a 58 3e 6c 4f ca 3e
       0.3019771 0.21812531 0.21103778 0.3951372
0003f0 b9 69 db 3d 82 a9 07 bd 28 3d 02 3e 8c cf 29 3e
       0.10713524 -0.03312064 0.12718642 0.16583079

fc2.bias f4 [32]
000000 5d 4b 08 3e 21 00 58 3e d9 59 b4 bd b9 17 c5 3c
       0.13309999 0.21093799 -0.088061996 0.024059163
000010 e1 78 e7 bd c3 1f 38 3e 42 40 c9 3d 80 ec d7 3d
       -0.11302353 0.17980866 0.09826709 0.10543156
000020 ea df 9b be a5 a7 4e 3e a3 b5 33 3d f7 a0 db 3b
       -0.3044427 0.20181139 0.043874394 0.006702538
000030 40 a8 8f 3c 7d 0e ba bd d7 7f 00 3e d1 c3 07 be
       0.017536283 -0.09084795 0.12548767 -0.13258292
000040 74 c9 54 3e 45 4c 9f 3c bc 09 15 3b 4a df 23 3e
       0.20779973 0.019445548 0.0022741398 0.16003147
000050 41 eb a9 bc 59 9a e6 bd b8 43 1c 3d 87 e4 d2 bd
       -0.02074206 -0.11259908 0.03815052 -0.102974944
000060 2e 36 48 3e 2b e8 4e 3d 15 20 13 3e 35 40 ea 3d
       0.19551918 0.05051438 0.14367707 0.11438028
000070 35 97 0a be f3 5e 21 3e 37 c3 d8 ba a5 ed e9 3c
       -0.13534243 0.15758877 -0.0016537671 0.0285557

fc3.weight f4 [16, 32]
000000 45 e0 76 3e 68 ac 83 3e bd 70 37 3e 16 53 18 be
       0.2410899 0.25717473 0.179141 -0.14875445
000010 3e 90 97 3d b5 e2 ce 3d 9b 73 68 3e b2 f0 70 3e
       0.07400559 0.10101835 0.2270035 0.23529318
000020 14 22 e4 be f1 ea 06 3e dc 8f 93 3e 35 d5 e6 bd
       -0.4455725 0.1317556 0.28820693 -0.11271135
000030 f1 7c 99 bd 00 82 bf 39 d0 1d 49 3e 6c 8a 28 be
       -0.07494534 0.00036527216 0.19640279 -0.16459054
000040 f3 7e 0f 3e a4 31 8e 3e ee 95 e5 3d d8 74 83 3e
       0.14013271 0.27772248 0.112102374 0.25675082
000050 a4 52 17 bd ac 1d b9 bd 3e b5 eb bd e8 0a 28 be
       -0.036944047 -0.090388626 -0.115091786 -0.1641041
000060 19 9c a8 3e 28 a7 4e be 6e 64 e3 3d 18 e6 5d 3e
       0.32931593 -0.20180953 0.1110314 0.21669805
000070 a4 56 8a 3d bb b2 63 3e 3d 59 6d 3d cd 0b e6 bd
       0.06754807 0.22236149 0.057946432 -0.112327196
000080 09 93 39 3c 41 c6 32 be e6 1d 70 bd d3 e6 d5 3d
       0.01132656 -0.1745844 -0.058622263 0.10444417
000090 de 91 c6 3d a9 70 e5 bd 18 c0 2d be 94 c7 70 bd
       0.09695791 -0.11203129 -0.16967809 -0.058784083
0000a0 dc c0 2e be 42 21 23 be 18 87 64 3d 24 96 47 bd
       -0.17065758 -0.15930656 0.055792898 -0.04872717
0000b0 91 71 22 be 45 08 0b be f0 74 3e 3d 52 db c7 3d
       -0.15863635 -0.13577373 0.04649824 0.09758629
0000c0 4b 52 15 be 05 47 02 3e 18 29 84 bd e1 e5 16 3e
       -0.14582174 0.12722404 -0.064531505 0.1473613
0000d0 9b ce 19 be c0 ef 42 bd a0 7d 14 be e5 28 a4 bd
       -0.1502022 -0.047591925 -0.14501047 -0.080156125
0000e0 92 1f 1c be 8f f8 18 3d 8c 1d 13 be 99 48 db bd
       -0.15246418 0.03734642 -0.1436674 -0.10707206
0000f0 ae 64 c7 3d 33 6c b3 3d ce 17 c8 3d 91 90 cd bd
       0.09736 0.08760872 0.097701654 -0.100373395
000100 d6 fd 6d 3e a6 6f 08 3e fa 39 4e ba 9d 9b 97 3d
       0.23241362 0.1332384 -0.00078669155 0.07402728
000110 85 47 22 3d 94 34 47 3e 72 1b 84 3d af b1 91 3e
       0.039618988 0.1945365 0.06450547 0.28455874
000120 5f ba 92 be 87 84 83 3e d0 33 83 3e b0 bb 85 bc
       -0.28657815 0.25687048 0.25625467 -0.016324848
000130 22 9c ee bc 97 29 d5 bd 5c 96 44 3e de 76 bb bd
       -0.029127184 -0.10408323 0.19197983 -0.091535315
000140 57 0f 58 3e d9 8a 85 3e e7 cc 4a 3e e9 32 6e 3e
       0.21099602 0.26082495 0.19804727 0.23261608
000150 44 23 21 be d2 93 7f 3c 79 9c d8 3d 09 b2 21 be
       -0.15736109 0.015599208 0.1057672 -0.15790571
000160 83 24 03 3e 9f 91 50 3d 83 41 8b 3e 2e 3f f5 3d
       0.12806897 0.050920125 0.2719842 0.11974941
000170 e4 70 23 3d 37 25 81 3e f8 02 69 bd 02 3a 67 3d
       0.039902583 0.25223705 -0.056887597 0.056451805
000180 88 ad 42 be 86 48 17 3c 63 bc 0d 3e 1a 28 c7 3c
       -0.1901151 0.0092335995 0.13841395 0.024311114
000190 13 64 12 bd a0 4e a7 bd 7f ca 31 be 92 47 2a 3e
       -0.03573997 -0.081692934 -0.17362402 0.16628864
0001a0 98 65 1c be 6e 10 21 be 27 80 18 be c5 47 c9 3d
       -0.1527313 -0.15728924 -0.14892636 0.09828142
0001b0 0b 56 cf 3c 00 02 6a 3a 45 37 1b bd 89 ec 6c bd
       0.025309583 0.00089266896 -0.037894506 -0.057842765
0001c0 16 b2 f9 3d 68 91 44 bd e3 cc 3c be 83 8a 1b be
       0.1219217 -0.047990233 -0.18437533 -0.15189557
0001d0 ef ff 8a 3d d0 fb 80 bc fb c7 ee 3d 8a f2 63 bd
       0.06787097 -0.015745074 0.11659237 -0.055651225
0001e0 03 c2 11 bb e0 d1 97 bd 0c c6 9e 3d be 0f 1f bd
       -0.0022240884 -0.07413077 0.07752618 -0.038833372
0001f0 50 84 4f bd 2b ba ff bd 8a a1 8f 3d e3 8e 0d 3e
       -0.050663292 -0.124866806 0.07013233 0.13824038
000200 e3 c7 a9 bc 31 89 b3 bc 15 0e 22 3e 7e f9 30 bd
       -0.020725196 -0.021916004 0.15825684 -0.043206684
000210 8f 11 03 3e b9 ee de bd 65 24 b5 bd f3 3d 61 bd
       0.12799667 -0.108853765 -0.08844832 -0.05499072
000220 30 1f 2c be 0f 88 f4 3d db ca 85 3c 52 57 c1 3d
       -0.16808772 0.119400136 0.01633208 0.09440483
000230 a0 32 62 3d c0 7c 21 be ca 7f 10 3e 1c 36 30 be
       0.05522406 -0.15770245 0.14111248 -0.17208141
000240 5e 09 41 bd 3d ee ad bd 31 2b 0f 3e dd f8 b8 bd
       -0.047128074 -0.08492706 0.1398132 -0.09031842
000250 57 fa 1e 3e ec cc 69 3d e1 01 1f be fb 1e e2 3d
       0.15525185 0.057080194 -0.1552806 0.11041065
000260 31 1b 88 3d 37 1b 0a bd 57 4b 8f bd 4e da 93 bd
       0.06645811 -0.03371736 -0.06996792 -0.07219373
000270 c0 fa 81 3c a4 67 d2 3c c4 f1 6a 3d d7 c2 2c be
       0.015866637 0.025684185 0.057359472 -0.168712
000280 94 ed 16 3e 35 d6 8e be 6d 69 15 3e b8 80 79 3e
       0.14739066 -0.27897802 0.14590998 0.24365509
000290 b3 e6 2f bd 20 1d 8c be ec ab dc 3d 81 86 40 be
       -0.04294462 -0.2736597 0.10774979 -0.18801309
0002a0 dd 4f e7 3e b6 96 2a be bd 50 14 be d2 40 dc bd
       0.45178118 -0.16659054 -0.14483924 -0.10754551
0002b0 24 d6 13 be 61 68 cd bd 09 2c 85 be 5a 3c 30 3c
       -0.14437157 -0.10029674 -0.2601016 0.010756576
0002c0 a1 fb 80 3c b4 af ec bd 7d 02 68 be 41 04 0b be
       0.015744986 -0.1155695 -0.22657199 -0.13575841
0002d0 a7 da d3 bc 38 33 0a be 3c 27 3e 3e 40 52 a2 3e
       -0.025861097 -0.13496101 0.18569654 0.31703377
0002e0 c8 2f 22 bd b9 ff a4 3e 3b 8f 1d be 1f 05 ed 3c
       -0.03959635 0.3222635 -0.1538667 0.028933106
0002f0 42 f8 8b 3d 08 9a 01 3e 6d 31 0e 3e ce 21 c9 bd
       0.06834461 0.12656415 0.13886042 -0.09820901
000300 cf 2d cd bd 39 50 be 3d be 25 c8 3d 0b 7f 1f be
       -0.10018503 0.09292645 0.09772824 -0.15575807
000310 10 2b a6 bc 3c 38 13 3e bb a6 b5 3b 0a d4 13 3e
       -0.020284206 0.1437692 0.0055435575 0.14436355
000320 e3 47 a9 bd e3 dc fc bc df 49 3a be 32 02 8e 3d
       -0.082656644 -0.030867046 -0.18192242 0.069340125
000330 88 a6 59 3d 8e 76 97 bd 86 a8 a0 bd e6 5a bf 3d
       0.053137332 -0.073956594 -0.07844643 0.093435094
000340 0b 11 27 bd 90 77 6a 3d 28 a4 23 be 61 20 f1 bb
       -0.040787738 0.05724293 -0.1598059 -0.007358596
000350 e7 cf 17 be 1a a7 9d bd d8 7e 1b bd 76 d2 e4 bd
       -0.14825402 -0.07697888 -0.037962765 -0.11172955
000360 1d 42 b6 bd ed de 29 3e 3b e5 24 3e ea 81 1f 3e
       -0.08899329 0.16588946 0.1610307 0.15576902
000370 d0 20 d9 bc f7 07 3c be b3 4f 1f 3e fe 50 15 be
       -0.026504904 -0.18362413 0.15557747 -0.14581677
000380 72 df c7 3d 1f 20 1e 3d 04 5c 8d bd 47 01 86 bd
       0.09759416 0.03860485 -0.06902316 -0.065432124
000390 5b ca ad bc 6f 38 c2 bc 9b 92 37 3e a3 ba cc 3d
       -0.021214655 -0.02370855 0.1792702 0.09996536
0003a0 07 b8 8b be 12 2d 1a 3e 77 a6 58 3e d0 5f 4d 3e
       -0.2728884 0.15056255 0.21157251 0.20056081
0003b0 f3 b0 4d 3d 5d a0 28 3e 48 80 83 3e bc 9b 42 bd
       0.05021758 0.16467424 0.25683808 -0.0475118
0003c0 0e 2d 5d 3e 2b dd d1 3d 4d 00 cd 3d 86 84 52 3c
       0.21599218 0.102472626 0.10009823 0.012848979
0003d0 40 79 95 3b 59 36 13 be a4 06 66 3d de 87 07 be
       0.0045615733 -0.143762 0.056158677 -0.13235423
0003e0 1e 01 e6 3d 25 b7 69 be a2 30 72 3e 69 c0 1f 3d
       0.11230682 -0.2282377 0.23651364 0.039001856
0003f0 7e e0 1a be 74 f9 0e 3e 1c be d7 3d e7 52 20 be
       -0.151247 0.13962346 0.10534307 -0.15656625

fc3.bias f4 [16]
000000 b9 3c ef 3d 2f 78 b9 bd 7d 70 09 3d c9 af 93 3d
       0.11681504 -0.09056126 0.033554543 0.07211263
000010 10 91 12 be ed 92 17 3e 6c 23 0e be 6a d9 2f 3e
       -0.1431315 0.14802141 -0.138807 0.1717278
000020 01 99 35 bd 88 45 9e 3d bc cf 93 3d 94 54 0a 3e
       -0.04433537 0.07728106 0.072173566 0.13508826
000030 ba d9 00 bd 0c 37 fb 3d 3a 89 0f be 3c 22 09 be
       -0.03145764 0.12266359 -0.14017192 -0.13391966

out.weight f4 [1, 16]
000000 26 6e 97 3e 6b 1a ef 3d 31 28 b2 3e e8 45 55 3d
       0.29576224 0.11674961 0.3479629 0.05206862
000010 1f df 3d be 8b a1 f4 be 23 bb 9a 3b 90 75 38 3e
       -0.18542145 -0.47779498 0.0047220155 0.18013597
000020 72 1e 74 3e c9 cb fc 3d 3d 21 5f be a1 71 72 3e
       0.23839739 0.123435564 -0.21790023 0.23676158
000030 7d e5 b5 be 24 12 5e 3a 28 67 fd be 00 e8 31 bc
       -0.35526648 0.0008471331 -0.49492764 -0.010858536
