models/2d_static_classifier_10_epochs.pth (torch, 4910 bytes, 5 tensors)

fc1.weight f4 [15, 15]
0	0xbe504570	-0.20338988
1	0xbe79d1aa	-0.24396387
2	0xbea9a3e7	-0.3313286
3	0xbdc36663	-0.09541013
4	0xbe7b2a15	-0.24527772
5	0xbe9cf7a6	-0.3065769
6	0x3e4095fc	0.18807214
7	0x3e79f1c3	0.24408631
8	0xbe17438f	-0.14771865
9	0x3e33757f	0.1752529
10	0x3d2aaabb	0.041666728
11	0x3df445af	0.119273536
12	0x3e4ef5c5	0.20210941
13	0xbe1f3ac2	-0.15549758
14	0x3cc77c40	0.02435124
15	0x3ea10df1	0.3145595
16	0x3ec5dca7	0.38644907
17	0x3e1a5635	0.15071948
18	0x3ea26816	0.31720036
19	0x3eedede2	0.46470553
20	0x3d91940f	0.07108318
21	0xbdd04088	-0.10168558
22	0x3d15b59c	0.03655015
23	0xbd556051	-0.052093808
24	0x3d72b58a	0.05925516
25	0xbe2ec2f3	-0.17066555
26	0x3e7d454b	0.24733464
27	0x3c8e0ced	0.017340148
28	0xbe2b9eaf	-0.16759752
29	0xbc9e4502	-0.019320015
30	0x3e62240f	0.22084068
31	0xb9d68b5a	-0.00040921086
32	0xbe33ade2	-0.175468
33	0x3ddb4ce8	0.10708028
34	0x3df7daba	0.12102266
35	0x3e903ece	0.28172916
36	0x3d76147a	0.06007812
37	0xbd7a0b25	-0.061045785
38	0xbaf10790	-0.0018389095
39	0x3d962315	0.0733091
40	0x3e8ed44c	0.27896345
41	0x3ac866ed	0.0015289463
42	0x3e37af71	0.1793802
43	0x3e4abbaf	0.19798158
44	0x3e9388e4	0.28815377
45	0x3ec40516	0.3828513
46	0x3ee62db0	0.44956732
47	0x3ed8ee5c	0.42369354
48	0x3e8a9f10	0.2707448
49	0x3ed00924	0.40631974
50	0x3dd7a9a1	0.10530401
51	0xbc7a5004	-0.015277866
52	0xbc94f723	-0.01818425
53	0x3da23377	0.079199724
54	0xbddbff6d	-0.10742078
55	0x3de5e47b	0.1122522
56	0xbe8b5a63	-0.27217397
57	0xbc7eabc1	-0.015543879
58	0xbe2ccfac	-0.16876096
59	0x3dd8108b	0.1055003
60	0xbe17dd2a	-0.14830461
61	0x3e0f7c12	0.14012173
62	0xbd2241c6	-0.039613508
63	0x3deabef1	0.114622004
64	0x3d3191c9	0.043351922
65	0x3e98ea00	0.29866028
66	0x3e95afc3	0.29235658
67	0xbd9105b4	-0.07081166
68	0x3e9251a3	0.2857791
69	0x3df3a945	0.1189752
70	0xbc9c7a2c	-0.019101225
71	0xbdd33a9f	-0.103139155
72	0xbdcce893	-0.100052975
73	0x3e71278d	0.23550244
74	0x3e965dec	0.29368532
75	0xbeb5a606	-0.35478228
76	0xbe4031fb	-0.18769066
77	0xbe8cb688	-0.2748301
78	0xbe944085	-0.28955474
79	0xbec56eba	-0.3856104
80	0x3d758ff4	0.059951738
81	0x3e0da0ff	0.13830946
82	0x3cba4650	0.022738606
83	0x3de109ca	0.10988195
84	0x3dce5666	0.10075073
85	0x3e0e6601	0.13906099
86	0xba993982	-0.0011690112
87	0x3e074e75	0.13213523
88	0x3d0758bc	0.033043608
89	0xba702ad8	-0.00091616577
90	0xbe14dafa	-0.14536658
91	0xbe28f8a0	-0.16501093
92	0x3e384973	0.17996769
93	0xbe08157e	-0.13289449
94	0xba2272ae	-0.0006196898
95	0x3d994e85	0.074856795
96	0x3c4c4114	0.012466688
97	0xbb188718	-0.0023273882
98	0xbdfcd8fc	-0.12346074
99	0xbe5ce18c	-0.21570414
100	0xbe97600e	-0.2956547
101	0x3e286b6a	0.16447225
102	0xbd891cec	-0.066949695
103	0xbdabfccf	-0.08397829
104	0xbe4010b2	-0.18756369
105	0xbef7a135	-0.4836518
106	0xbf1238d8	-0.57117987
107	0xbeaee1a4	-0.34156525
108	0xbeebcffe	-0.46057123
109	0xbee2c52f	-0.44291064
110	0x3e23ecb9	0.16008271
111	0x3d6b6a5a	0.05747447
112	0x3e482baf	0.19547914
113	0x3df4db73	0.11955919
114	0x3e0ea645	0.13930614
115	0x3cedf1ba	0.029045928
116	0x3e181119	0.14850272
117	0x3d619654	0.055075005
118	0x3e881202	0.2657624
119	0x3e29a9f9	0.16568746
120	0xbe1d8863	-0.15384059
121	0xbd1bcacf	-0.03803521
122	0xbd99d22c	-0.0751079
123	0xbe813119	-0.2523277
124	0x3d108150	0.035279572
125	0xbe88a9d3	-0.26692066
126	0xbe0d3f42	-0.13793662
127	0xbdaaeb94	-0.08345714
128	0xbdca54f6	-0.09879486
129	0x3e542082	0.20715526
130	0x3d6b83f8	0.057498902
131	0x3db6cf7a	0.08926292
132	0x3ddb45ca	0.107066706
133	0x3dc714f6	0.09720795
134	0x3de64652	0.11243881
135	0xbe0743e3	-0.1320949
136	0xbe0c0849	-0.13675036
137	0xbe934882	-0.28766257
138	0xbde21bbc	-0.11040446
139	0xbc2dc2b5	-0.010605504
140	0x3ca4467c	0.02005314
141	0xbce35868	-0.027752116
142	0xbd7ee64f	-0.06223136
143	0xbe485f0c	-0.19567508
144	0x3e2b67f1	0.16738869
145	0x3e7f9ccd	0.24962159
146	0xbe549f42	-0.20763877
147	0xbd8d057e	-0.06885813
148	0x3e440791	0.19143511
149	0xbe1fa857	-0.1559156
150	0xbea33b06	-0.3188097
151	0xbc3c14be	-0.011479555
152	0x3de26481	0.11054326
153	0xbd1d6c2d	-0.038433243
154	0x3e1d7446	0.15376386
155	0x3e94298e	0.28937954
156	0x3e6e017c	0.23242754
157	0xbd049ca0	-0.03237593
158	0x3e173ae1	0.14768554
159	0x3e84f4d6	0.25968045
160	0x3e9ed3a0	0.31020832
161	0x3c09e73e	0.008416949
162	0x3de02f67	0.10946541
163	0x3e85faf9	0.2616804
164	0xbe1c1e81	-0.15246011
165	0xbeb457f7	-0.35223362
166	0xbdfc3d59	-0.12316389
167	0x3e1632cd	0.14667816
168	0xbdd0dcc8	-0.10198361
169	0xbc78f4fb	-0.015195127
170	0x3e8eab58	0.278651
171	0xbe22e807	-0.15908824
172	0x3e234697	0.15944897
173	0x3e0519c0	0.12998104
174	0xbc93f5e4	-0.018061586
175	0x3e0bf1f4	0.13666517
176	0xbc94c634	-0.018160917
177	0x3e42ebb9	0.19035234
178	0x3e3767f2	0.17910746
179	0x3e502df6	0.20330033
180	0xbd8f54f3	-0.06998625
181	0xbe19611b	-0.14978449
182	0xbebcd44d	-0.36880723
183	0xbe8e8d62	-0.27842242
184	0xbd35b78b	-0.044364493
185	0x3ca67fd4	0.020324625
186	0x3db42504	0.08796123
187	0xbcd16056	-0.025558632
188	0x3e31c8ef	0.17361806
189	0x3dc2689c	0.09492609
190	0x3e9478ac	0.28998315
191	0x3e67c7e3	0.22634844
192	0x3de71c62	0.112847105
193	0x3d8eba96	0.06969182
194	0x3d3f0754	0.046637848
195	0x3ebb80f3	0.36621818
196	0x3e174b4b	0.14774816
197	0x3ee43e30	0.44578695
198	0x3e87ca48	0.26521516
199	0x3ec5ef08	0.3865893
200	0xbe8cfe28	-0.27537656
201	0xbdab37aa	-0.083602265
202	0x3a6168a8	0.0008598664
203	0xbd6dc340	-0.058047533
204	0xbd9eb47f	-0.07749271
205	0x3dba87dd	0.09107945
206	0xbc9356e7	-0.017985774
207	0xbd7b1684	-0.06130077
208	0x3ce44ba4	0.0278681
209	0xbe0845a6	-0.13307819
210	0x3e1c41e9	0.15259518
211	0x3dc338b1	0.095322974
212	0x3e351180	0.17682457
213	0xbe2717d2	-0.1631768
214	0xbd8b3020	-0.067962885
215	0x3cfe5b50	0.0310494
216	0xbd2ef42e	-0.042713337
217	0x3e8da476	0.27664536
218	0xbcd9ed51	-0.02660242
219	0xbd312ed2	-0.043257542
220	0xbd929ea1	-0.07159162
221	0x3dbb3c69	0.09142382
222	0x3e91cbd0	0.2847581
223	0x3d255853	0.040367436
224	0xbd11c99a	-0.035592653

fc1.bias f4 [15]
0	0xbd340782	-0.043952473
1	0xbeb65170	-0.35609007
2	0xbd335a47	-0.043787267
3	0xbea5835f	-0.3232679
4	0x3c33768a	0.010953555
5	0x3ead42bd	0.3383998
6	0x3e0510f2	0.12994745
7	0x3e891e76	0.26781052
8	0xbe47bf1f	-0.195065
9	0x3e2633f7	0.1623076
10	0x3ef1a610	0.47197008
11	0x3e290acf	0.1650803
12	0x3ef5aef8	0.47985053
13	0xbe865c2b	-0.26242194
14	0x3ebfaf7a	0.37438565

fc2.weight f4 [15, 15]
0	0xbea0f866	-0.31439513
1	0x3e20505e	0.15655658
2	0x3e138eaf	0.14409898
3	0xbe0c8f52	-0.13726547
4	0x3e792e96	0.24334177
5	0xbeec0b00	-0.46102142
6	0xbe683623	-0.22676902
7	0xbf56f5bb	-0.83968705
8	0xbe840c5e	-0.25790685
9	0xbeba428b	-0.36378893
10	0x3e40a7d0	0.18814015
11	0xbc2e0cf8	-0.010623209
12	0x3ebdbf56	0.3706004
13	0xbec69148	-0.38782716
14	0x3deab015	0.11459366
15	0xbe3ab339	-0.1823243
16	0xbe028436	-0.12745747
17	0xbd0cfcd7	-0.034420814
18	0xbb83d5b0	-0.0040232763
19	0xbdd3d5ce	-0.103435144
20	0xbdee68e0	-0.11641097
21	0x3e7669ef	0.24063848
22	0x3e08b612	0.13350704
23	0xbe0a3f2f	-0.13500665
24	0x3e6eb0b3	0.23309593
25	0x3e0e5a93	0.13901739
26	0x3dd48a0d	0.103778936
27	0xbe8f7213	-0.2801672
28	0xbe29e86d	-0.1659257
29	0x3c99e8da	0.01878779
30	0xbde28dda	-0.11062212
31	0xbdd99e48	-0.10625893
32	0x3df63c1b	0.12023183
33	0xbe1ec2c6	-0.15503988
34	0x3e3df357	0.18549858
35	0xbefa6a8d	-0.48909417
36	0xbe69da39	-0.22837152
37	0xbee2afc1	-0.44274715
38	0xbe77bc1e	-0.24192855
39	0xbf0091f6	-0.5022272
40	0x3dbf2dac	0.09334883
41	0x3cb305f4	0.021853425
42	0x3e1a8936	0.15091404
43	0x3d68e8c4	0.056862608
44	0x3ea183c5	0.31545845
45	0xbceccb15	-0.02890543
46	0xbd18329d	-0.037157644
47	0x3e7034ec	0.23457688
48	0xbe992356	-0.29909772
49	0xbcd88bd2	-0.026433859
50	0xbec9d7c1	-0.3942242
51	0x3e0265e2	0.12734178
52	0xbf37e311	-0.7183085
53	0xbd8a6d77	-0.0675916
54	0xbe8770eb	-0.26453337
55	0x3e1d972e	0.15389702
56	0x3ec32968	0.38117528
57	0x3e1449e9	0.1448132
58	0xbe0b5a62	-0.13608697
59	0x3b5c3837	0.0033602843
60	0xbe4579cf	-0.19284748
61	0x3ee44618	0.44584727
62	0x3e542d6f	0.20720457
63	0x3eabb97f	0.3353996
64	0x3db497a0	0.08817983
65	0x3e817af5	0.2528912
66	0x3e006d20	0.12541628
67	0x3f3fdfcb	0.74950856
68	0x3e8c293f	0.27375218
69	0x3eab7278	0.3348577
70	0x3d68eaf3	0.05686469
71	0x3b283115	0.002566402
72	0xbeaa7b75	-0.33297315
73	0x3f06233c	0.52397513
74	0xbe6d9f90	-0.232054
75	0xbe200fde	-0.15631053
76	0xbd405c12	-0.046962805
77	0xbdc4c7fc	-0.096084565
78	0xbd986a38	-0.074421346
79	0xbe08b0c3	-0.13348679
80	0xbece7773	-0.40325508
81	0x3c661b18	0.014044546
82	0xbee8bbf4	-0.45455897
83	0xbd9e3bd9	-0.07726259
84	0xbee7ce06	-0.4527437
85	0x3dfc124b	0.123081766
86	0x3e6fefe3	0.23431353
87	0x3e3a7351	0.18208052
88	0xbe8a4c1b	-0.2701119
89	0x3e7df97e	0.24802205
90	0x3ea898a4	0.32928956
91	0xbe612659	-0.21987285
92	0xbcdc20bd	-0.02687108
93	0xbeea29fa	-0.4573515
94	0x3d3605c3	0.04443909
95	0x3f4f0428	0.80865717
96	0x3e211f20	0.1573453
97	0x3f2d01b9	0.67580754
98	0x3d915750	0.07096732
99	0x3eb46997	0.3523681
100	0x3e29caff	0.16581343
101	0x3d09b065	0.03361549
102	0x3e02481f	0.12722825
103	0xbec403fa	-0.38284284
104	0xbdb40b46	-0.08791213
105	0xbe37a18c	-0.17932719
106	0xbe1ca1ff	-0.15296172
107	0xbe0ddf69	-0.13854755
108	0xbddfa806	-0.1092072
109	0xbe4e357b	-0.20137589
110	0x3bcf7c80	0.00633198
111	0x3da707e7	0.08155804
112	0x3e0436ff	0.12911604
113	0x3d04c8c3	0.032418024
114	0xbc7daa50	-0.0154825
115	0xbe3c3c12	-0.1838229
116	0x3e6f2278	0.23352993
117	0xbdae2c91	-0.08504594
118	0xbe00bd9f	-0.12572335
119	0x3c99efc4	0.018791087
120	0xbdc1353d	-0.094339825
121	0xbe2f223e	-0.17102906
122	0x3d933d90	0.071894765
123	0xbc9f1a73	-0.019421792
124	0x3bf645e6	0.0075156568
125	0xbebf5a76	-0.37373704
126	0x3c22b4cf	0.009930803
127	0xbf3d75c8	-0.74007845
128	0xbdf971ed	-0.12179933
129	0xbf166b9c	-0.5875795
130	0x3e4c160e	0.19930288
131	0x3ebaa894	0.3645674
132	0x3d8e3093	0.069428585
133	0xbebb64cb	-0.36600336
134	0x3d81cb62	0.0633762
135	0x3ea4d15f	0.32190987
136	0x3e927b54	0.28609717
137	0x3e08896d	0.13333674
138	0x3e236ad0	0.15958714
139	0xbd961449	-0.07328088
140	0x3f05dc67	0.5228943
141	0x3e560301	0.20899583
142	0x3ec99c06	0.3937685
143	0x3e0415ed	0.12898989
144	0x3eb294c0	0.34879112
145	0xbd800899	-0.0625164
146	0x3d8c8ab7	0.06862395
147	0xbe9edca2	-0.31027704
148	0x3ebe3b15	0.3715445
149	0x3e1b2cce	0.1515381
150	0x3e92f25f	0.2870054
151	0xbeb96e68	-0.36217046
152	0x3cb11020	0.021614134
153	0xbeef266b	-0.46708998
154	0x3bac5b76	0.0052599264
155	0x3f25e876	0.6480783
156	0x3dc9c939	0.09852833
157	0x3f1cbd12	0.61226
158	0xba5b1a66	-0.00083581207
159	0x3f2d2844	0.67639565
160	0xbd8e8142	-0.06958248
161	0xbcc412fe	-0.023934837
162	0x3e9c0f1b	0.30480275
163	0xbe87c3ad	-0.26516476
164	0xbd69029d	-0.056887258
165	0xbd47187b	-0.04860733
166	0x3e126882	0.14297679
167	0x3e5eab01	0.2174492
168	0x3df8c292	0.12146486
169	0x3e5e1725	0.21688516
170	0xbf31e48d	-0.69489366
171	0x3e6b60e3	0.22986178
172	0xbf49c7d7	-0.78820556
173	0x3e413459	0.18867625
174	0xbece13eb	-0.4024957
175	0x3d88f9d9	0.0668828
176	0x3cc9a523	0.024614876
177	0x3ede66e1	0.43437865
178	0x3da39a76	0.079884455
179	0x3e33c7d3	0.17556696
180	0x3e7f7676	0.24947533
181	0xbcc3f348	-0.023919716
182	0xbe3db594	-0.18526298
183	0xbddf11ac	-0.108920425
184	0x3e2f2c1c	0.1710667
185	0xbcdb0170	-0.026734084
186	0x3e74b90a	0.23898712
187	0x3ded0ed0	0.11575091
188	0xbdb6e890	-0.089310765
189	0x3d5d02a0	0.05395758
190	0xbe770d53	-0.24126177
191	0x3dfdfdbc	0.124019116
192	0xbe4349ea	-0.19071165
193	0x3d38f020	0.045150876
194	0x3e3ff422	0.18745473
195	0xbe3c9f6f	-0.18420194
196	0xbdb21e79	-0.086972184
197	0x3eb20dfd	0.34776297
198	0xbe9fadec	-0.3118738
199	0x3d91963f	0.07108735
200	0xbf1e8e18	-0.6193557
201	0xbdf1bc89	-0.11803538
202	0xbf16d8f9	-0.58924824
203	0x3d507cbc	0.050900206
204	0xbe3fb935	-0.18722995
205	0x3e9c891a	0.3057335
206	0x3e0b14ac	0.13582104
207	0xbd86325f	-0.06552576
208	0xbeb63aef	-0.35591838
209	0x3e0ce2ad	0.13758345
210	0x3e12b995	0.14328606
211	0x3e23ad99	0.15984191
212	0x3d4f92ae	0.050676994
213	0x3ed83997	0.42231438
214	0x3e9cdaa7	0.30635568
215	0xbcf4164a	-0.029795785
216	0xbbbdda63	-0.005793856
217	0x3d93a010	0.07208264
218	0xbe80e99c	-0.2517823
219	0x3e1b6a6e	0.15177318
220	0xbe499dd1	-0.19689108
221	0xbd434176	-0.04766985
222	0xbe8ba6aa	-0.27275592
223	0x3edeb459	0.4349697
224	0x3d9ff748	0.07810837

fc2.bias f4 [15]
0	0x3e9f94c8	0.311682
1	0xbdec973d	-0.11552284
2	0x3e57d211	0.21076228
3	0x3e567796	0.20944056
4	0xbee2c768	-0.4429276
5	0x3e78f212	0.24311092
6	0x3e2c0269	0.16797794
7	0xbd2f1a4d	-0.04274969
8	0x3ec9a833	0.39386138
9	0xbe8e7138	-0.27820754
10	0x3e9e4b73	0.30916938
11	0x3dc3acdf	0.09554457
12	0xbe6555ff	-0.22396086
13	0x3ec4af89	0.38415173
14	0xbea81bd0	-0.3283372

out.weight f4 [1, 15]
0	0x3e9ce06a	0.30639964
1	0x3b8b2522	0.00424637
2	0x3ebebf24	0.37255204
3	0x3ec676c3	0.38762483
4	0xbf5dbdab	-0.86617535
5	0x3e1f34e4	0.1554752
6	0xbf3c6ca0	-0.7360325
7	0xbe050dcb	-0.12993543
8	0x3e5186ac	0.2046153
9	0xbf313bc5	-0.69231826
10	0xbf2de3da	-0.679258
11	0x3e577623	0.2104116
12	0xbd645620	-0.055746198
13	0x3eb8ef9d	0.3612031
14	0xbf25f331	-0.64824206
