models/2d_static_classifier_20_epochs.pth (torch, 4910 bytes, 5 tensors)

fc1.weight f4 [15, 15]
0	0xbd9fe177	-0.07806676
1	0x3db4b02e	0.08822666
2	0x3e020bd2	0.12699822
3	0x3e08ee8d	0.1337225
4	0x3cd9b615	0.026576081
5	0xbdd2224c	-0.10260448
6	0xbb739b57	-0.0037171447
7	0x3d143bf2	0.03618998
8	0x3e328365	0.17432936
9	0xbe0367a5	-0.12832506
10	0x3d368df7	0.044568982
11	0x3b6b24d8	0.0035880115
12	0xbe5d8522	-0.21632817
13	0xbceeb88d	-0.029140735
14	0x3e4dca24	0.20096642
15	0x3e054dc6	0.1301795
16	0xbe7b53ab	-0.24543636
17	0x3de4a7dc	0.11164829
18	0xbde420e8	-0.11139089
19	0xbd5d98e8	-0.0541009
20	0x3dfda290	0.12384522
21	0xbe1679e7	-0.1469494
22	0xbe469fcd	-0.19396897
23	0xbe176f0e	-0.14788458
24	0xbe18897c	-0.14896196
25	0x3dac3c00	0.084098816
26	0x3d8ba0c4	0.06817773
27	0x3c9df940	0.01928389
28	0xbd4cf180	-0.050035
29	0x3cc5bca0	0.024137795
30	0xbe3363f1	-0.17518593
31	0xbdc29b54	-0.09502283
32	0xbcc73925	-0.02431924
33	0x3e8adfa6	0.27123755
34	0x3d83558f	0.064128034
35	0xbdb1b0ad	-0.08676276
36	0x3e8d611c	0.2761315
37	0xbaa8939e	-0.0012861376
38	0xbc334755	-0.0109423
39	0x3e14d365	0.14533766
40	0xbdc117c5	-0.09428362
41	0xbe6b7a56	-0.22995886
42	0x3e2f602a	0.17126527
43	0xbd01acdd	-0.031658996
44	0xbd3c2203	-0.045930874
45	0x3e1c9bdf	0.15293835
46	0xbe4f9a02	-0.20273593
47	0x3e1a874b	0.15090673
48	0x3df37e20	0.11889291
49	0x3dca0d57	0.098658256
50	0x3e7e8505	0.2485543
51	0x3e1ee3b8	0.15516555
52	0x3c670e28	0.014102496
53	0xbe5c83bc	-0.21534628
54	0xbdcb4295	-0.09924809
55	0xbdba236f	-0.0908879
56	0xbdc36692	-0.09541048
57	0xbc9c36d0	-0.019069105
58	0x3dcb029a	0.099126056
59	0xbd23d7af	-0.040000614
60	0xbe39cccb	-0.18144529
61	0xbd43346c	-0.047657415
62	0x3e445f14	0.19176894
63	0xbe5f64bf	-0.21815775
64	0xbdf95b76	-0.12175648
65	0xbce1fb10	-0.027585536
66	0xbd83bd96	-0.06432645
67	0x3e698076	0.2280291
68	0xbd881946	-0.066454455
69	0x3b276e00	0.0025547743
70	0x3e80de69	0.25169685
71	0xbdf86330	-0.121282935
72	0x3d8a1028	0.06741363
73	0xbe310d08	-0.17290127
74	0xbd450748	-0.048102647
75	0x3c8e1c4a	0.017347474
76	0x3e6d8c47	0.23198043
77	0xbe027bc5	-0.12742527
78	0x3e1980d6	0.14990553
79	0xbe3508c0	-0.17679119
80	0x3da70c36	0.08156626
81	0xbdecfb08	-0.11571318
82	0xbd41e966	-0.047341727
83	0xbe125569	-0.14290394
84	0xbdbe4c95	-0.092919506
85	0x3d389a30	0.04506892
86	0x3de628b3	0.112382315
87	0xbd95b4ce	-0.073098764
88	0x3e09adaf	0.13445161
89	0x3d61ab83	0.055095207
90	0x3d5d85a5	0.05408253
91	0x3d84c138	0.06482166
92	0xbe4289b4	-0.18997842
93	0xbd7042df	-0.058657523
94	0x3cab1e9c	0.02088862
95	0xbd8a970a	-0.0676709
96	0x3e4080ce	0.18799135
97	0x3d71f695	0.05907305
98	0x3dd7fb07	0.105459265
99	0x3e6e38a5	0.23263796
100	0x3e33ce34	0.17559129
101	0xbe37b762	-0.17941049
102	0x3e827708	0.2548144
103	0x3e51e4c1	0.20497419
104	0x3e1e4801	0.15457155
105	0xbe55228c	-0.2081396
106	0xbd114c16	-0.03547295
107	0xbd5b899e	-0.05359804
108	0xbca248dd	-0.019810135
109	0x3e2f18bb	0.17099278
110	0xbe8defe0	-0.27722073
111	0xbe92c663	-0.28666982
112	0x3d77e296	0.060518824
113	0x3d87ff57	0.06640499
114	0xbe1bcc86	-0.15214738
115	0xbe7663fd	-0.2406158
116	0xbe83c0d8	-0.25733066
117	0x3dfa280b	0.12214669
118	0xbda87858	-0.08226079
119	0x3e68036e	0.22657558
120	0x3da1c48f	0.07898819
121	0xbb8d2faa	-0.0043086605
122	0xbd8c6309	-0.06854827
123	0x3c33c57d	0.010972378
124	0x3df5b1a4	0.11996773
125	0x3e3bee6f	0.18352674
126	0xbe27bd84	-0.16380888
127	0x3d9553d7	0.07291382
128	0x3e4bdb1a	0.199078
129	0xbcfa1cd9	-0.030531334
130	0x3e1a402e	0.15063545
131	0x3e1069a0	0.14102793
132	0xbe50e950	-0.20401502
133	0x3dafb41b	0.08579274
134	0x3bcac1e0	0.0061876625
135	0xbe3af2c7	-0.18256675
136	0x3d64ff00	0.05590725
137	0x3e6cf3d6	0.23139891
138	0xbe3cf183	-0.18451504
139	0xbe6cc01f	-0.23120163
140	0x3d91fa60	0.07127833
141	0xbe82bf2e	-0.25536484
142	0xbb921b40	-0.004458815
143	0xbe71c5c6	-0.23610601
144	0x3d7931a0	0.06083834
145	0x3e1092b0	0.14118457
146	0x3d72d688	0.059286624
147	0xbcd1f648	-0.025630131
148	0xbdce72d0	-0.100804925
149	0x3c80d7a0	0.015727818
150	0x3ddee00e	0.10882579
151	0xbc7177e7	-0.01473806
152	0x3dbe1dae	0.09283005
153	0xbd958743	-0.0730119
154	0xbc3a2134	-0.011360455
155	0xbd1deebf	-0.038557764
156	0xbb6dfe34	-0.0036314847
157	0x3e192d3a	0.14958659
158	0xbe4e8b4a	-0.20170322
159	0x3e3cbb90	0.18430924
160	0x3d0001b5	0.031251628
161	0x3e3577a3	0.17721419
162	0x3d01acc5	0.031658906
163	0xbe3e3f7d	-0.18578906
164	0xbdd58d91	-0.10427392
165	0x3de85608	0.11344534
166	0x3e60e8d2	0.21963814
167	0xbe56589c	-0.2093224
168	0xbc70fd42	-0.014708819
169	0xbd216271	-0.03940052
170	0xbcb3f949	-0.021969454
171	0xbabbd17d	-0.00143294
172	0x3dfeac42	0.12435199
173	0xbd2172f0	-0.039416254
174	0xbe062ecd	-0.1310379
175	0x3e0ac173	0.13550358
176	0x3db61ef9	0.08892626
177	0xbd8f0937	-0.069841795
178	0x3db77373	0.08957567
179	0x3e3971fa	0.18109885
180	0xbd8194ca	-0.063272074
181	0x3e5acd14	0.21367294
182	0x3e1ecce7	0.15507852
183	0x3c260d59	0.010135018
184	0x3dbcf92e	0.09227215
185	0x3e445de3	0.1917644
186	0xbe88b1fd	-0.26698294
187	0xbe10993b	-0.14120953
188	0x3cb3b1a8	0.021935299
189	0xbdbff667	-0.093731694
190	0x3dbf59b2	0.0934328
191	0x3e8521d8	0.26002383
192	0xbcb8ec92	-0.022573743
193	0xbdb1cb79	-0.086813875
194	0x3c3c4add	0.011492458
195	0x3e20a56d	0.15688105
196	0x3e350cb8	0.17680633
197	0xbe277cf1	-0.16356255
198	0xbe806450	-0.25076532
199	0x3e653dae	0.2238681
200	0xbde36eb6	-0.11105101
201	0x3e1462ec	0.1449086
202	0x3e446e11	0.19182612
203	0xbe27069a	-0.16311112
204	0xbd867307	-0.065649085
205	0x3e20cb0f	0.1570246
206	0x3db117d6	0.086471245
207	0x3e043b5e	0.12913272
208	0xbda78931	-0.08180464
209	0xbc0c36eb	-0.008558015
210	0x3e3fd7f4	0.18734723
211	0xbe5ec0cc	-0.21753234
212	0xbda44a84	-0.08022025
213	0xbe2e53c8	-0.17024148
214	0xbe4e9575	-0.20174201
215	0x3e39ad6c	0.18132561
216	0x3e2ee7fa	0.1708068
217	0xbd8b8bd6	-0.06813781
218	0x3e418948	0.18900025
219	0xbe82f8c1	-0.2558041
220	0x3d942c94	0.07235065
221	0xbe409929	-0.18808426
222	0xbe445184	-0.1917172
223	0x3d9ff838	0.07811016
224	0x3bbd1140	0.0057698786

fc1.bias f4 [15]
0	0x3d26c244	0.04071261
1	0xbe3bfd84	-0.18358427
2	0xbd91793c	-0.07103202
3	0x3de9054d	0.11377964
4	0xbe469f7a	-0.19396773
5	0xbe882fee	-0.26599067
6	0x3e123d82	0.14281276
7	0xbe0428ee	-0.12906238
8	0xbe8ef6c7	-0.2792265
9	0x3e6b24b2	0.22963217
10	0xbe03c956	-0.12869772
11	0x3e0fa8c3	0.14029221
12	0xbd01c7b8	-0.031684607
13	0x3e2c4492	0.16823032
14	0x3d9258d8	0.07145852

fc2.weight f4 [15, 15]
0	0xbdb6d6da	-0.089276984
1	0x3e0fb3ec	0.14033478
2	0x3e2e6bd3	0.17033319
3	0xbde3b3dd	-0.111182906
4	0xbe14cbf2	-0.14530924
5	0xbc777289	-0.015102991
6	0x3e3f2aa7	0.18668614
7	0xbe538054	-0.20654422
8	0x3e8cbd6e	0.27488273
9	0xbe167528	-0.14693129
10	0x3e1e9d1d	0.15489621
11	0x3e2bd776	0.1678141
12	0x3cb2872c	0.02179297
13	0x3db9dbd6	0.090751335
14	0xbc90d390	-0.017679006
15	0x3d418c30	0.047252834
16	0xbe842c5f	-0.25815102
17	0xbd1ab6c4	-0.037771955
18	0xbe2055ab	-0.1565768
19	0x3da0527c	0.07828233
20	0xbe579e55	-0.21056493
21	0xbe48f300	-0.19623947
22	0x3d88cdac	0.06679854
23	0xbe5e5bec	-0.21714753
24	0xbdf164c2	-0.11786796
25	0xbdfac56c	-0.122446865
26	0x3dd432e8	0.10361272
27	0xbd179330	-0.037005603
28	0x3e6139dc	0.21994728
29	0x3e040e5e	0.12896106
30	0x3e102e8a	0.14080253
31	0x3e1b2232	0.15149763
32	0x3cd25310	0.025674373
33	0xbd8bbce8	-0.068231404
34	0xbe557280	-0.2084446
35	0x3ce66100	0.028122425
36	0xbd4d247c	-0.050083622
37	0x3e58f4c0	0.21187115
38	0xbd20b178	-0.039231747
39	0xbe4573ae	-0.1928241
40	0xbe4dc7d8	-0.20095766
41	0x3dc6b3c4	0.09702256
42	0xbe1ba687	-0.15200244
43	0xbd883170	-0.066500545
44	0xbe3f02e2	-0.18653443
45	0x3d670861	0.056404475
46	0xbe07916b	-0.13239066
47	0xbc33263e	-0.010934411
48	0x3e624a91	0.22098757
49	0xbe0ab852	-0.13546875
50	0xbeafd484	-0.34341824
51	0x3e14e007	0.14538585
52	0xbe37f2d0	-0.1796372
53	0x3d02cfb1	0.03193635
54	0xbdb3c290	-0.08777344
55	0xbe806847	-0.25079557
56	0x3e39280b	0.18081681
57	0xbded1c3f	-0.11577653
58	0x3e3710e9	0.17877544
59	0x3d9f8d10	0.077905774
60	0x3e19a551	0.1500447
61	0xbdc2fc6e	-0.095208034
62	0xbe04b3f4	-0.12959272
63	0x3c52ce82	0.012866618
64	0xbcbf3420	-0.023340285
65	0xbe66e113	-0.22546797
66	0x3e4fef29	0.20306076
67	0x3e27597b	0.16342728
68	0xbae99cac	-0.0017823181
69	0xbe66428a	-0.2248632
70	0x3dfc83a0	0.12329793
71	0x3e0d336b	0.13789146
72	0xbe1f71a0	-0.15570688
73	0xbe79d020	-0.243958
74	0xbe25a3c7	-0.16175757
75	0xbda9ad5c	-0.08285019
76	0xbe143c74	-0.14476186
77	0xbd356aee	-0.04429143
78	0x3e66582c	0.22494572
79	0xbde8beea	-0.11364539
80	0x3e048d88	0.12944615
81	0xbd6b8f04	-0.057509437
82	0xbdcda23b	-0.10040709
83	0x3e56cdc3	0.2097693
84	0xbe809b54	-0.25118506
85	0x3e6b55ba	0.22981921
86	0x3e53622f	0.20642923
87	0xbe3746f5	-0.17898162
88	0xbe392bbb	-0.18083088
89	0xbe6c5363	-0.23078685
90	0xbd698373	-0.057010125
91	0xbd762458	-0.060093254
92	0xbd9f151c	-0.07767698
93	0xbe6d9e33	-0.2320488
94	0x3e4d8ec2	0.20073989
95	0xbe400084	-0.18750197
96	0xbe89c01c	-0.2690438
97	0x3e33a1be	0.17542168
98	0x3da84910	0.082170606
99	0x3e2adc12	0.16685513
100	0x3e3c3228	0.18378508
101	0x3de06819	0.10957355
102	0x3db70ce7	0.08938008
103	0x3dbe9a00	0.09306717
104	0xbccf2c10	-0.025289565
105	0xbe08d615	-0.13362916
106	0x3c836bd0	0.01604262
107	0xbe846e38	-0.2586534
108	0x3e3241b4	0.17407876
109	0x3e5a363c	0.21309751
110	0x3dc1b4f7	0.094583444
111	0x3dcc6bd7	0.09981506
112	0x3d096457	0.033542957
113	0xbe0a8ac0	-0.13529491
114	0xbdae888a	-0.085221365
115	0xbe1ebfc9	-0.15502848
116	0xbd1db9d7	-0.03850731
117	0x3e02e63e	0.12783143
118	0x3c01e35f	0.007927745
119	0xbe221b74	-0.15830785
120	0xbc038046	-0.008026188
121	0x3ccf8850	0.025333554
122	0x3c0e9ecc	0.008704852
123	0xbe711857	-0.23544441
124	0xbe0b149a	-0.13582078
125	0x3d87a0d3	0.06622472
126	0x3e4af4b6	0.19819912
127	0x3e77d1ce	0.24201128
128	0x3e3c67b0	0.18398929
129	0x3de63b20	0.11241746
130	0x3e39fffa	0.18164054
131	0x3d9a1a74	0.07524577
132	0xbbec56d8	-0.007212501
133	0xbe4fffc6	-0.20312414
134	0xbe43f542	-0.19136527
135	0x3cfd704e	0.03093734
136	0x3d649ba0	0.055812478
137	0x3e26bf63	0.16283946
138	0xbe1aad10	-0.1510508
139	0x3dcea344	0.10089734
140	0x3c13c2d0	0.009018615
141	0x3e311f46	0.17297086
142	0x3e4543f0	0.19264197
143	0x3e594545	0.2121783
144	0x3ce06e80	0.02739644
145	0xbd8928ae	-0.06697212
146	0x3de06d2b	0.10958322
147	0xbdb23f3a	-0.08703466
148	0xbe3c96c8	-0.18416893
149	0xbd841884	-0.064499885
150	0x3e7d95f6	0.24764237
151	0x3d87474c	0.06605396
152	0x3e1ca9b0	0.15299106
153	0xbca5b1a0	-0.0202263
154	0x3e270468	0.16310275
155	0xbe0cd57d	-0.13753314
156	0xbe66b8ee	-0.22531483
157	0x3e82fb05	0.25582138
158	0xbd32d080	-0.043655872
159	0xbd8d4f26	-0.06899862
160	0xbe50ee9a	-0.2040352
161	0xbdf68adc	-0.12038204
162	0xbe5e338a	-0.21699348
163	0xbe7f78dc	-0.24948448
164	0x3ce932a0	0.028466523
165	0xbe3e30b6	-0.18573269
166	0xbe20b0e8	-0.15692484
167	0x3e090b1c	0.13383144
168	0xbe7a5c32	-0.24449232
169	0xbe7a2489	-0.24428
170	0x3e3d9d7c	0.18517107
171	0xbdb355b6	-0.087565824
172	0xbe4d628e	-0.20057127
173	0xbe815236	-0.25258034
174	0x3ca195f0	0.019724816
175	0xbe41c885	-0.18924148
176	0x3e3e5854	0.18588382
177	0x3cef25f0	0.029192895
178	0xbdbf2700	-0.093336105
179	0xbe1a8d06	-0.15092859
180	0xbe7b9ed8	-0.24572313
181	0x3e81c183	0.2534295
182	0xbe699b74	-0.22813207
183	0x3d9ba830	0.076004386
184	0x3dc83ea0	0.0977757
185	0x3e330d1b	0.17485468
186	0xbe802e83	-0.25035486
187	0xbd37c64c	-0.044866845
188	0xbe828b3f	-0.2549686
189	0xbe3bcd74	-0.18340093
190	0x3e0b482d	0.13601752
191	0xbe1b4435	-0.15162738
192	0xbdbfdc03	-0.09368136
193	0x3e2fbf61	0.17162849
194	0xbe308abb	-0.17240421
195	0xbdf933c9	-0.1216808
196	0xbe0a8f8c	-0.13531321
197	0x3da65d2f	0.08123242
198	0xbe418289	-0.18897451
199	0xbd95f794	-0.073226124
200	0x3e0b2c5f	0.13591145
201	0x3e378c8b	0.17924707
202	0xbe2b8697	-0.1675056
203	0x3e70d082	0.2351704
204	0x3df06b78	0.11739248
205	0x3e032827	0.12808286
206	0xbcde2d8f	-0.027121333
207	0x3dfa13d5	0.12210814
208	0x3e3f0bc9	0.1865684
209	0xbda2d880	-0.0795145
210	0xbddf62fc	-0.10907552
211	0x3e035446	0.12825117
212	0xbe18abaa	-0.14909235
213	0xbe801a06	-0.25019854
214	0x3d0f1740	0.034934282
215	0xbe7b7866	-0.24557647
216	0xbe42349a	-0.18965378
217	0x3e37f5fe	0.17964932
218	0x3e0be6f6	0.13662323
219	0x3de52d58	0.11190289
220	0x3e815183	0.252575
221	0xbe6da3c0	-0.23206997
222	0xbda2aa8e	-0.07942687
223	0xbd5dfbbc	-0.05419515
224	0x3cde39e0	0.027127206

fc2.bias f4 [15]
0	0xbddce74d	-0.107863046
1	0xbe618816	-0.22024569
2	0xbd094fc8	-0.03352335
3	0xbe5a95ee	-0.21346256
4	0xbe45d480	-0.19319344
5	0xb96c5b49	-0.0002254072
6	0x3cbecba0	0.023290455
7	0x3c8fce66	0.017554473
8	0x3d87f0c5	0.0663772
9	0xbdacf195	-0.084445156
10	0x3dfb9bfc	0.12285611
11	0x3e7dc02e	0.24780342
12	0xbd747178	-0.059678525
13	0x3e594aeb	0.21219985
14	0x3e3c94a0	0.18416071

out.weight f4 [1, 15]
0	0x3df9f6c6	0.122052714
1	0xbe6c1d14	-0.23057967
2	0xbe2b6ed7	-0.16741501
3	0xbcbe2de6	-0.023215245
4	0x3e202c00	0.15641785
5	0xbcdcbf4d	-0.026946688
6	0xbb98ce25	-0.004663246
7	0x3d450799	0.04810295
8	0xbdd1f208	-0.10251242
9	0x3e3fdcb1	0.18736531
10	0xbe1da28a	-0.15394035
11	0x3e4924f8	0.19643009
12	0x3e53b69d	0.2067513
13	0xbdc41697	-0.09574621
14	0x3ccaa0c0	0.024734855
