models/2d_static_classifier_15_epochs.pth (torch, 18132 bytes, 7 tensors)

fc1.weight f4 [64, 15]
000000 91 46 59 be 6d 05 2f be 78 23 49 be 3a cb 51 be
       -0.21218325 -0.17091914 -0.19642437 -0.20487681
000010 1e a9 42 3e 10 0f fe 3c 51 1f 49 be 44 84 9d ba
       0.19009826 0.031013042 -0.19640853 -0.0012017568
000020 66 86 40 3d 3a 1c bb 3c 3e 3b 19 be 77 25 a1 3d
       0.047003172 0.022840608 -0.14964005 0.07868474
000030 d8 2f ac 3c 0e ca ea 3d e2 98 2b bd d5 a6 12 be
       0.021018907 0.1146432 -0.041893847 -0.14321454
000040 e9 bf ae 3d 71 0a c2 bd 4a 10 9d be fb 79 d4 bd
       0.08532698 -0.09474648 -0.3067649 -0.103748284
000050 4a 31 02 3e 69 99 29 be 85 4e 2f 3e 8d 8b 13 be
       0.12714115 -0.16562428 0.17119797 -0.14408703
000060 9f b5 05 bd 9b d4 a8 bd 37 41 1b 3c f1 34 85 3d
       -0.03264391 -0.08243676 0.009475998 0.065042384
000070 13 45 60 3e 62 ee 26 3e b1 fe 76 3d 7c 24 93 bd
       0.2190135 0.16301873 0.060301486 -0.07184693
000080 bd 58 32 be 51 00 cf 3d 71 2b 82 3d c6 2a 83 3e
       -0.17416663 0.10107482 0.06355942 0.2561857
000090 a6 99 82 be 7d b9 57 3e db 60 bc bb ac 65 39 3e
       -0.2550785 0.21066852 -0.0057488508 0.18105191
0000a0 8a bd b5 3d 5b dc b3 be a0 f8 08 be 10 dc 08 3d
       0.08874042 -0.35129055 -0.13376093 0.033412993
0000b0 05 a1 e4 3d c6 d6 69 3e c5 34 8e 3e ed be 30 3d
       0.111635245 0.22835836 0.27774635 0.04315083
0000c0 e4 85 87 3e 93 7f a4 3e 7c 2d 35 be 57 b1 76 be
       0.26469338 0.3212858 -0.17693132 -0.24091087
0000d0 ce d6 6e bd c2 67 f0 3b a4 25 3b 3e 73 28 01 3e
       -0.058310322 0.0073365876 0.18276078 0.12613086
0000e0 a5 d4 90 3c f3 f5 73 3d f1 89 22 3e e7 94 ca 3c
       0.017679522 0.059560727 0.15872933 0.024729205
0000f0 28 e8 25 3e 30 f4 8c 3e 36 5a 4e 3e 1c bc 12 bd
       0.16201842 0.2753005 0.201516 -0.035823926
000100 98 f1 a2 3e 15 2e 28 3d 96 a3 aa bd 62 39 6b be
       0.31824946 0.041059572 -0.08331983 -0.22971109
000110 de 18 a9 3d a1 7f 48 3e 38 d2 20 3e f8 81 9e bd
       0.08256696 0.19579937 0.15705192 -0.07739633
000120 0e 79 f9 3d e3 4e 42 be 8f 57 cb bd e6 5d 32 3e
       0.121812925 -0.18975405 -0.0992881 0.17418632
000130 8d 21 2f 3d 42 b3 95 be 1b d5 01 be 29 a0 4d 3e
       0.042756606 -0.29238325 -0.1267895 0.20080628
000140 f0 32 f7 bd 33 00 1a 3e 3c 60 63 3e 1d 13 81 3d
       -0.120702624 0.15039138 0.22204679 0.06302474
000150 6a 35 ad be d1 ae 7e 3e cb 7a 38 3e 67 a5 74 be
       -0.33829814 0.24871375 0.18015592 -0.23891221
000160 fd 4a 48 be f2 d1 d6 bd 0f 4b 16 3e c2 17 4c be
       -0.19559856 -0.10489263 0.1467707 -0.19930938
000170 e5 7f ad be e6 f6 43 be 1f ed 3b 3e a4 1a 6d be
       -0.33886638 -0.19137153 0.18352173 -0.23154694
000180 e9 73 47 3e d5 29 11 3e e0 31 cf 3c 5c dc 8d be
       0.1947781 0.14176114 0.025292337 -0.27707183
000190 a8 cc 0e 3d f2 8d 20 3e 13 58 4b 3d 4c df fd 3c
       0.034863144 0.15679148 0.04964454 0.030990265
0001a0 43 61 05 3d c0 c9 09 3e 08 2f 3c bd 53 1c cc be
       0.03256346 0.13455868 -0.04594329 -0.3986536
0001b0 59 21 6b 3d ca e3 47 bc d1 28 e3 3d 73 b6 d3 3b
       0.05740485 -0.012200305 0.110917695 0.0064609586
0001c0 aa 67 31 3e c2 aa 80 3e 11 86 76 be 77 74 8d bc
       0.17324701 0.25130278 -0.2407458 -0.017267449
0001d0 8b e8 31 3e c3 23 a3 be 06 a5 17 3e 84 c9 68 be
       0.17373864 -0.31863222 0.14809045 -0.22733122
0001e0 3a 7a 93 bd fd 68 14 3d 1c f0 eb bc 3f d8 e9 bd
       -0.07201047 0.036232937 -0.028801017 -0.11418199
0001f0 b9 7a 37 be 2e d8 21 bb ca d7 3b 3e 30 4f 94 3d
       -0.17917909 -0.0024695504 0.18344036 0.07241666
000200 43 a3 82 bd ea e8 59 3e f1 f5 5b be e0 ce 83 be
       -0.06378796 0.21280256 -0.21480538 -0.2574377
000210 8f 80 30 3e d7 c6 02 3e e0 5c fd 3d b5 22 c9 bd
       0.17236541 0.12771164 0.1237123 -0.09821073
000220 fa 9e 16 3e cd 4e 8c bd 99 2b 70 be 91 93 75 3e
       0.14709082 -0.068509676 -0.23454131 0.23982073
000230 aa 44 11 be 03 8c 46 be ff 62 18 3e 70 f1 77 3d
       -0.1418635 -0.19389348 0.14881514 0.060532987
000240 21 1f 0c bd a0 bf f8 bc 8e 98 48 3e 5e 45 35 be
       -0.034209374 -0.030364811 0.19589445 -0.17702243
000250 a3 4f ba bd 5a da 18 be 88 10 dc bd 57 46 02 3e
       -0.09097221 -0.14927045 -0.107453406 0.12722145
000260 87 05 18 bd 5a e4 23 be a8 4b f7 bd dd c6 29 3e
       -0.037114646 -0.16005078 -0.12074977 0.16579767
000270 d3 0c b2 bd 94 7f 55 3e c2 a8 f6 3d f3 b3 92 3d
       -0.08693852 0.20849448 0.12043907 0.07163229
000280 13 dc 9b be f7 53 de 3c 77 fb c8 3d b6 74 83 3c
       -0.3044134 0.027139647 0.09813588 0.016046863
000290 34 49 7d bc c2 d5 1d 3e 6b bf b2 be b9 76 a6 bc
       -0.0154593475 0.15413573 -0.34911665 -0.020320283
0002a0 9e ff 8b bd 72 c0 66 bb 0b 3f b1 be e1 c0 3d 3e
       -0.068358645 -0.0035209921 -0.3461841 0.18530609
0002b0 e7 48 0e 3d f2 14 65 3e e1 72 75 3e d1 4e b5 be
       0.034737494 0.22371271 0.23969604 -0.35411695
0002c0 51 8d 3d 3e 56 1d 78 be a5 32 57 3e bc 43 ca bb
       0.18510939 -0.24229941 0.21015413 -0.0061726253
0002d0 e8 16 af 3d 40 0d 91 be 72 53 f5 bc 3a 17 6f be
       0.08549291 -0.2833042 -0.029947016 -0.23348704
0002e0 4d 1e c9 3d f1 b5 df 3c 6c 64 d3 bd de 43 e1 bd
       0.098202325 0.027308436 -0.10321888 -0.10999273
0002f0 07 76 bb 3d 56 f9 4c be 2b f2 2e 3e be 3a 27 be
       0.09153371 -0.20016989 0.17084567 -0.16331002
000300 be 74 f6 3a c6 55 1e 3e b6 63 47 3e c0 0a 8d bc
       0.0018803102 0.15462407 0.1947163 -0.01721704
000310 fb 6a 6a 3c 4b 4f 93 be 2a 9b b9 bd 45 87 87 3e
       0.014307733 -0.28771433 -0.09062798 0.2647039
000320 0d 6b 96 be cd 25 3a be ee df 42 be 25 62 19 3e
       -0.29378548 -0.18178482 -0.19030735 0.14978845
000330 17 ca 93 3d 5c 59 18 3d d2 31 8e 3e ab 03 47 3e
       0.0721628 0.037194595 0.27772385 0.19434993
000340 47 9d 16 3e 0e 03 50 be 0b 71 47 bd f9 38 33 be
       0.14708434 -0.20313665 -0.04869179 -0.17502202
000350 6a 58 52 3d 86 60 80 be 47 a4 7d bd 7c 5b a0 3d
       0.05135385 -0.25073642 -0.061924245 0.07829949
000360 14 e7 b7 bd 10 0d 29 3d 96 ef 90 3e a3 40 37 bc
       -0.089796215 0.041272223 0.2830779 -0.011184844
000370 f7 1d 4c bd ee ef 53 be d6 46 28 be b5 f6 c7 3d
       -0.049833264 -0.20696995 -0.16433272 0.097638525
000380 6b af c7 3d e1 52 3e be 5c 3f db be ba 17 b3 be
       0.09750255 -0.18586303 -0.42821777 -0.3497904
000390 17 d5 bd be 62 fb 54 be 1f 7e 38 bd 9e 03 0c 3e
       -0.37076637 -0.2079902 -0.045042153 0.13673255
0003a0 26 c6 72 3e a6 c5 20 3e d8 fe 82 bd 3c 29 ba bd
       0.237084 0.15700397 -0.06396264 -0.09089896
0003b0 0f 32 6d 3d ff 2d 0e 3e 5f fc f3 bc 80 90 c4 bb
       0.057909068 0.13884734 -0.029783426 -0.005998671
0003c0 c4 2d 7c 3b 9e a7 58 be b6 a3 54 be e7 f4 ba 3d
       0.0038479427 -0.21157691 -0.20765576 0.09128743
0003d0 2f 30 33 be 22 ad 86 bd 14 31 b1 3d 5a f4 73 3e
       -0.1749885 -0.06575991 0.08651939 0.23823681
0003e0 f8 3d c4 3c d1 5e 82 3e 67 56 ad 3c 3d 18 3e 3e
       0.02395533 0.25462964 0.021159364 0.18563934
0003f0 18 f3 6f 3e 3b 80 5c 3d f3 a1 00 3e ac 42 a0 3e
       0.23432577 0.053833228 0.12561779 0.31300867

fc1.bias f4 [64]
000000 7c 0e a0 3e f7 e7 e9 3e fb 40 bc bd a3 84 1d be
       0.3126105 0.45684788 -0.091920815 -0.15382628
000010 7d df 85 3d d1 b4 93 bd 13 f8 8a 3c 7f b3 43 bd
       0.06536768 -0.07212222 0.016963994 -0.047778603
000020 e1 9a 54 3c 94 90 81 3e cf c1 6b be d0 32 fe bd
       0.012976379 0.25305617 -0.23023151 -0.124120355
000030 b0 d2 9f 3e 5c b6 b5 bd a0 04 06 3f d2 59 93 3d
       0.3121543 -0.08872673 0.5235081 0.07194866
000040 7c 9f bd 3e 29 b9 6f be ac 83 cf 3e 94 ff 92 be
       0.3703574 -0.23410477 0.40530145 -0.28710616
000050 63 9d b7 3d a9 70 7e be f5 d8 f7 bd ed 8b a8 3e
       0.08965566 -0.24847664 -0.12101928 0.32919255
000060 d9 16 45 be b5 05 8f 3d b4 74 15 3e a5 71 65 bb
       -0.19246997 0.069835104 0.145953 -0.0035010364
000070 a9 58 d2 be a5 ea 80 be 31 bb 13 be 06 aa c6 be
       -0.41083267 -0.2517902 -0.14426877 -0.38801593
000080 16 5d 43 bc be 9b 98 3e 20 03 97 bc f6 26 73 3e
       -0.011924049 0.29806322 -0.018434107 0.23745331
000090 9b fe 54 be 33 f4 fd 3d cb 0c d2 3d 1c 28 52 be
       -0.2080025 0.12400093 0.10256346 -0.20523113
0000a0 91 8b cc 3e 24 1e e6 bd 3a 31 0f bd 60 df b0 3e
       0.3995023 -0.112362176 -0.034959055 0.34545422
0000b0 03 e6 aa be ee 73 7b bb 02 49 97 3e 01 7f 83 3e
       -0.3337861 -0.003836866 0.29547888 0.25682834
0000c0 43 4f 36 3e 44 89 db bd fd f3 4c 3e 1e 7e 32 be
       0.17803673 -0.10719541 0.20014949 -0.17430922
0000d0 22 fe 35 3e a7 ae 18 be b8 03 f0 bd 50 b3 f4 3d
       0.17772725 -0.14910375 -0.11719459 0.11948264
0000e0 12 7f 82 be c9 cf f7 3e 48 53 a4 be f0 27 03 be
       -0.25487572 0.48400715 -0.3209479 -0.12808204
0000f0 61 71 f0 be b5 c2 68 3e ec 2a ac 3d 95 91 a9 be
       -0.469615 0.22730525 0.08406624 -0.33118883

fc2.weight f4 [32, 64]
000000 86 9d 4a bc 5d ff 61 3d fe 17 ec bd 60 76 b9 bc
       -0.012366658 0.055175174 -0.11528014 -0.022639453
000010 6e e5 fb 3d ed e5 90 3d d8 ae 71 3d 76 38 a4 3c
       0.122996196 0.07075105 0.059004635 0.020046454
000020 47 75 f2 3d 52 64 16 3e 40 0b 5c b9 50 de 35 3d
       0.11838775 0.14686707 -0.00020985026 0.044401467
000030 22 79 35 3e 80 5b 41 3e 4f 79 9a bc 65 8b 09 be
       0.1772199 0.1888256 -0.018856673 -0.13432081
000040 65 5d 1a bd 78 2c d8 bd d6 4a b3 3c 19 d2 a2 bd
       -0.037686724 -0.10555357 0.02188627 -0.07950229
000050 e5 9e 2f bc 6f 0c 22 be c5 db 9d bd c7 a6 fc 3d
       -0.010719036 -0.15825056 -0.07707933 0.12336498
000060 49 3c 67 bd fc ea 07 3d 45 d8 18 3d 91 e6 6a bd
       -0.056453977 0.033183083 0.037315626 -0.05734879
000070 72 47 d9 bb c8 ad 05 be 9a 24 56 bb 96 22 02 be
       -0.0066308314 -0.13054574 -0.0032675625 -0.12708506
000080 a8 67 74 bc 91 56 cf 3d 19 4d 64 3c fd de 2e 3d
       -0.014917292 0.10123933 0.013934397 0.042693127
000090 bf 04 23 be 15 ab b2 bd d8 fd 09 be c7 f6 50 3d
       -0.15919779 -0.087240376 -0.1347574 0.051016595
0000a0 28 e9 89 3d c7 f5 aa bc da 56 09 be d4 ec 15 3e
       0.06733924 -0.020869149 -0.13412037 0.14641124
0000b0 c1 fe a9 bd cd 13 b1 bc 3c 6d 0b be a3 b5 1f 3e
       -0.083005436 -0.021615887 -0.13615888 0.15596633
0000c0 6e 9e 8c 3d b0 e5 eb 3d 00 36 71 3d 5b 76 88 be
       0.068661556 0.11518419 0.05888939 -0.26652798
0000d0 6e 86 52 3e f2 af 78 bd c8 2d 76 bd fc 78 8f 3d
       0.20559093 -0.06071467 -0.060102254 0.07005498
0000e0 07 02 bf 3c f9 2a 46 3e 1e 09 43 be bb ce c3 bb
       0.023316396 0.1935233 -0.19046447 -0.005975572
0000f0 ae 7c 90 3d 30 f3 f6 3b b8 4a 44 3d 76 51 ae bd
       0.07055031 0.0075363144 0.04792282 -0.08511631
000100 b6 8c a4 3e 08 86 69 3d af 44 f8 3c ad bd 96 bd
       0.32138604 0.057012588 0.030306188 -0.073603965
000110 73 6e 7d bd 95 4b 94 3e 05 a7 9a 3d ba 55 71 3d
       -0.06187291 0.28963915 0.07551388 0.058919646
000120 9f cf 7a 3c db d7 92 bc e9 b4 20 be b9 55 a9 3d
       0.01530829 -0.017925194 -0.15694012 0.082683034
000130 39 4c 2a 3e 7c 63 c2 bd 9c 51 2a 3e 74 cd e0 3e
       0.16630639 -0.094916314 0.16632694 0.43906748
000140 d9 95 d0 3d 3e fe 02 be f6 64 ba 3d 4a 8e d8 3c
       0.10184831 -0.12792298 0.09101288 0.026435036
000150 5a fe 08 3f 14 be c8 3e 98 39 23 3e e7 7a b4 3d
       0.5351311 0.39207518 0.15939939 0.08812504
000160 f2 d6 57 be 77 8d 02 bd ed 70 44 3e ba 31 25 3e
       -0.21078089 -0.031873193 0.19183703 0.1613225
000170 1c 10 b5 bd c5 e2 48 be 2a 7f e3 3d 36 02 8f be
       -0.08840963 -0.19617756 0.11108239 -0.27931374
000180 17 a4 b8 3b 0c ef cd 3d db af 18 be 1c 36 4c 3e
       0.0056347954 0.1005536 -0.14910834 0.19942516
000190 cd 20 90 3d 8e 32 02 bd 6f 8e c4 3d b3 ee bb 3d
       0.07037506 -0.031786494 0.095974796 0.09176388
0001a0 a5 1d 1c 3e e3 a4 9c 3d 5f 54 d5 3d a5 47 a6 3d
       0.15245683 0.07648637 0.10416483 0.08119134
0001b0 9e 4a 03 be 18 3d 28 3d ac e2 b0 3e af 12 a9 3c
       -0.12821433 0.04107389 0.34547937 0.020638792
0001c0 0e b3 0f 3e ce 30 b5 3d 9a ac 4d 3e c8 30 45 3e
       0.14033148 0.088471994 0.20085374 0.1925689
0001d0 50 8d c4 3d fe 9c b7 3e 22 1f b0 bd 05 ab fa bd
       0.09597266 0.35861963 -0.08599688 -0.12239651
0001e0 2c a9 56 bd e8 d6 82 3c 3b 46 04 3d c0 40 36 bd
       -0.05240743 0.015971616 0.03229354 -0.044495344
0001f0 6a ef 71 be 8e f6 3d 3e 2c ea 02 3d fa cc 91 bd
       -0.23626485 0.18551084 0.031961605 -0.07119174
000200 ec b0 f4 bd 82 d2 9d 3c e4 8f 2b 3d 47 86 2e 3e
       -0.11947808 0.019265417 0.04188527 0.1704341
000210 a0 ef a6 3d 44 7c 2b bd 8a 54 16 3e fd 4f 30 3d
       0.081511736 -0.041866556 0.14680687 0.043045033
000220 ad 63 57 3c 34 b8 20 be 48 35 ea 3d 92 3d 48 3c
       0.013146323 -0.15695268 0.11435944 0.012221711
000230 47 f7 bd bc ab d8 a1 3c b1 a1 d4 bd 01 16 ab be
       -0.0231892 0.019756636 -0.10382403 -0.33415225
000240 fa 63 f1 3d b3 c2 a9 3e b3 41 2a be 38 55 10 3e
       0.11786647 0.33156356 -0.16626625 0.14095008
000250 8a 48 d8 be 95 a7 5d be 00 44 ca bc de 20 db bd
       -0.42242843 -0.21645959 -0.024690628 -0.10699628
000260 fb c5 47 3e e6 47 5c 3c a0 6b 99 be 5d 1b 9b bb
       0.19509117 0.013444876 -0.29964924 -0.0047334866
000270 01 d1 2c 3e 50 0a a0 3e bf 37 9d bd 6a 5e 7b 3e
       0.16876604 0.31257868 -0.07676648 0.24547735
000280 c8 fe 05 3e b5 47 af 3d 58 95 4c 3e f7 f1 8e bd
       0.13085473 0.08558599 0.19978845 -0.06979745
000290 d8 6f 2e 3e 72 79 0b 3d c0 01 65 bd c7 54 43 3e
       0.17034853 0.034051366 -0.055909872 0.19075309
0002a0 6e c6 67 bd 2d 2b 18 bd fe af 33 be 65 e7 04 3d
       -0.05658572 -0.03715055 -0.17547604 0.032447238
0002b0 bd b0 05 3e 7c 40 00 be 1a 01 82 be d0 55 88 3d
       0.13055702 -0.12524599 -0.25391465 0.066569924
0002c0 62 e1 00 be 8a de c2 bd 60 b6 c7 bd fb fb 37 be
       -0.12585977 -0.09515102 -0.09751582 -0.17967217
0002d0 e4 32 2e 3b 80 23 95 be 70 5c 2d bc 6a 10 aa 3d
       0.0026580626 -0.29128647 -0.010581121 0.08303912
0002e0 ac b1 1a bc fb f5 8d bd 60 62 8f 3e 64 30 cb 3c
       -0.009441774 -0.06931683 0.28004742 0.024803348
0002f0 f7 3b 23 3e c1 22 83 3d dc f8 2b bc 17 e5 f2 3d
       0.15940844 0.06403113 -0.010496344 0.11860102
000300 ae aa e4 3d 58 e2 cf 3d 43 5f ef bc 0d ae bd bd
       0.11165367 0.101505935 -0.029220229 -0.09261713
000310 f3 6b ad bd 90 59 06 3e c3 71 f8 3d bc 4a 20 3e
       -0.08467855 0.13120103 0.12131073 0.15653509
000320 e4 b5 88 bd 52 35 5d 3d 36 47 91 ba 0f fb 70 3e
       -0.06675318 0.05400593 -0.0011083845 0.23533271
000330 47 06 b9 3b 85 67 22 be f3 c0 4b bd 78 03 3e 3e
       0.0056465003 -0.15859802 -0.049744558 0.1855601
000340 8e ea a5 bd 96 ca bb bd ab ea 56 bc cd 99 c4 3c
       -0.081013784 -0.091694996 -0.013117473 0.02399912
000350 d2 e8 b9 3e ce df ec bd f5 86 9a 3e 2a 45 94 3d
       0.3631044 -0.11566125 0.3018109 0.072397545
000360 a1 ba 12 be 1a b1 e5 3d 6b 09 bd 3d 4e 5a 36 bd
       -0.14329006 0.1121542 0.09230312 -0.044519715
000370 d9 50 2c be a1 99 21 be 12 45 72 bd ee 23 a0 bd
       -0.16827716 -0.15781261 -0.0591479 -0.07819353
000380 f0 df 41 3c d6 20 c6 3d 81 6b 02 3d 79 fa 39 3c
       0.011833176 0.09674232 0.031840805 0.011351221
000390 33 6b 38 be fc a6 ec bc 40 0d b9 3d 4a fa 8e bc
       -0.18009643 -0.028888218 0.0903573 -0.017453332
0003a0 7c 68 3a bc 9d 73 9d be ac 8e ab 3e d7 4a 79 bc
       -0.01137745 -0.30752268 0.33507288 -0.015215597
0003b0 68 6b c4 bd ca 59 49 3e f2 3b 43 bc 5f 14 99 3d
       -0.095907986 0.19663158 -0.011916148 0.074745886
0003c0 39 a0 a0 bc 50 4f 39 3c c6 6a 08 3e 22 f5 a4 bb
       -0.01960765 0.0113104135 0.13321981 -0.005034105
0003d0 14 be ce bc 80 4e 19 3e 32 0a 88 bd c4 6f 62 bd
       -0.02523712 0.14971352 -0.066425696 -0.05528237
0003e0 41 36 dd 3c 6d 2d 49 3e 2d eb 3d 3e 6c 0e a8 3d
       0.02700341 0.19646235 0.18546744 0.08205876
0003f0 c9 32 4a be cb 17 c7 3c 82 6c d7 bc b8 6c 5f be
       -0.19745935 0.024303338 -0.026296858 -0.21818817

fc2.bias f4 [32]
000000 d4 23 8e 3d 2e 00 30 3e e6 bc 15 bd 24 88 b0 3d
       0.069404274 0.17187569 -0.0365571 0.08619717
000010 dd a8 41 be 5a 29 06 be d7 54 72 bd 1e 91 c9 bd
       -0.18912072 -0.13101712 -0.05916294 -0.09842132
000020 37 5a 98 be 65 9e 6f 3e d0 41 c2 bc 03 a0 65 be
       -0.29756328 0.23400266 -0.023713022 -0.22424321
000030 c4 d6 be 3c 6b 4a fb 3c d9 6b b3 bc 85 85 c0 bd
       0.023295768 0.030675134 -0.021902012 -0.09400467
000040 44 19 0c 3e c2 5b 6d 3e 8c ba f3 3b 7e 8e 12 3e
       0.13681513 0.23179534 0.0074380096 0.14312169
000050 46 f8 7e bd fe eb 99 3e 15 18 f7 bd 00 6c 7f 3c
       -0.06224849 0.3006286 -0.1206514 0.015589714
000060 f1 83 46 3e 6b 08 d2 bc 91 82 dc 3d 68 69 f0 3d
       0.19386269 -0.02563878 0.10767091 0.11738855
000070 f1 4e 40 be e6 8b fc 3c fc f3 8e 3e be 74 4e 3e
       -0.18780114 0.030828428 0.2792052 0.20161721

fc3.weight f4 [16, 32]
000000 96 54 f2 bc e9 96 a2 be eb 28 c0 3c ec d6 a3 bd
       -0.02958135 -0.3175576 0.023457011 -0.079999775
000010 e0 76 02 be 04 f2 08 bd 79 fd af bd d6 fd ea bd
       -0.1274066 -0.03343393 -0.08593268 -0.114741966
000020 80 9b 94 be 53 19 6b 3e 00 26 77 ba ac c3 e5 be
       -0.29024887 0.22958879 -0.00094279647 -0.44875848
000030 de 7c 85 bc 53 98 28 be aa 45 d5 bc f9 0c 11 3e
       -0.016294893 -0.16464357 -0.026034195 0.14165105
000040 44 cd d6 3d a3 1b 7c 3e 71 aa 41 bd 25 79 50 3e
       0.1048837 0.24619918 -0.047281686 0.20358713
000050 1a 14 39 3d e1 41 ab 3d 26 08 14 3d 70 bb 23 3d
       0.045185186 0.08362175 0.036140583 0.039973676
000060 a4 f2 45 bd 43 96 09 be 24 1b 1c 3d 7a ac 4e be
       -0.048327103 -0.13436227 0.03811182 -0.20182982
000070 2d 2e 92 be 0a 09 58 3d 5e 28 a2 bb 7c 6d a4 3b
       -0.28550854 0.052742995 -0.00494866 0.0050179344
000080 88 79 32 3e 23 d5 b4 be 45 6a ab 3d a5 25 0a be
       0.17429173 -0.3531886 0.08369879 -0.13490923
000090 88 ea b5 bd 55 d7 e9 bd da 53 1b be ba ea 31 be
       -0.08882624 -0.114180245 -0.15168706 -0.17374697
0000a0 ee 07 0a be 8a 16 54 3d f8 f5 29 be de c7 15 be
       -0.13479587 0.051779307 -0.16597736 -0.14627025
0000b0 50 2d db 3c 3d c8 06 be c3 95 91 3b b7 1a 5e bd
       0.026755005 -0.13162322 0.004442902 -0.054224696
0000c0 ba ba 4a 3e e2 1a a4 3d 30 f6 36 bd 22 af 77 3e
       0.19797793 0.0801294 -0.044668376 0.24187902
0000d0 c0 10 de 3d 60 d1 24 bd 53 75 1c 3c 9a 14 fe 3d
       0.108430386 -0.040238738 0.009549457 0.12406273
0000e0 ff e0 c2 ba 32 0c dc 3d a1 df b6 3c f0 a0 a3 bb
       -0.001486808 0.107445136 0.022323431 -0.0049935505
0000f0 2e 3a f0 bd 3d 1c 6b be a8 42 1f 3e f5 fa 5d 3e
       -0.11729847 -0.22959991 0.15552771 0.21677764
000100 17 a2 22 3e 97 62 d1 3d 2f a7 df 3d a1 2b ea bc
       0.15882145 0.10223883 0.109205596 -0.028585257
000110 06 76 5e bd 99 00 df bd 42 e5 33 be 2e 74 fb 3d
       -0.054311775 -0.10888786 -0.17567924 0.12278019
000120 9e e1 46 be 16 4a d2 3c c2 02 79 bd c9 bf 15 be
       -0.19422004 0.025670093 -0.060793646 -0.14623941
000130 54 9d 2e be 55 46 56 bd d8 d6 f0 3d 68 dd 0d bd
       -0.17052203 -0.052313168 0.11759728 -0.034634978
000140 de 33 32 bd a2 f4 d3 3c 3d c5 88 bc e8 eb f7 bd
       -0.043506496 0.025873486 -0.016695613 -0.121055424
000150 83 39 1a 3e 24 05 af bd 33 17 29 be e4 45 30 bd
       0.15061001 -0.08545902 -0.16512756 -0.043035403
000160 2f 0e c7 3b b5 b0 0c 3e 0d 1e 06 3e 26 35 9a 3d
       0.006074689 0.13739283 0.13097401 0.075296685
000170 87 7c 34 be 36 22 78 bd e2 9f 37 be a4 0e d0 3d
       -0.17625628 -0.0605795 -0.17932084 0.101590425
000180 00 4c e0 39 7c ae 81 3d 9a 3b bf 3d 01 a9 01 3e
       0.00042781234 0.063321084 0.0933754 0.12662126
000190 84 56 07 bd 42 f2 18 be 59 60 0a 3e 80 cc 4c bc
       -0.033041492 -0.14936164 0.13513316 -0.0124999285
0001a0 98 32 25 be 42 fc a1 3d 62 66 a4 3d f8 d6 b6 bc
       -0.16132581 0.079094425 0.080273405 -0.022319302
0001b0 68 1c 36 3d 07 93 0f 3e 64 60 14 bd fc a6 43 3d
       0.044460684 0.1402093 -0.036224738 0.04776667
0001c0 2e 14 ca 3d ac 46 da bd 7f 8b e6 bd 41 bd 2b be
       0.0986713 -0.10658011 -0.112570755 -0.16771413
0001d0 78 01 1b 3d 9e 83 08 be 8c 46 26 be 80 ef 0a 3b
       0.037843198 -0.13331458 -0.16237849 0.0021199882
0001e0 01 97 b6 bd ed c3 1f 3e ef fe 16 3e 27 50 2a be
       -0.089155205 0.15602084 0.14745687 -0.16632138
0001f0 d0 fa c0 bc ea c3 00 be ef c3 00 3e d9 ab ca bd
       -0.023557097 -0.12574735 0.12574743 -0.098960586
000200 71 c9 56 3d 05 2c 0e 3f 0c db b8 bd 88 8f 86 3e
       0.052438203 0.5553592 -0.09026155 0.2628138
000210 d6 58 a9 3e 67 5f a6 3d 85 68 29 bd 8e 4e 04 be
       0.3307559 0.08123665 -0.041359443 -0.12920591
000220 02 34 e6 3e 81 4c 5e bd ad 8f 18 3e 5e 1f db 3e
       0.44961554 -0.05427218 0.14898558 0.4279737
000230 5b 9e 15 be 24 4e 8c 3e 7e 0a 92 3d 80 88 13 be
       -0.14611189 0.27403367 0.071309075 -0.1440754
000240 68 ab 53 bd 02 1f 03 3e f5 22 e8 bd 3c bd 39 3b
       -0.051677138 0.12804797 -0.113347925 0.0028341552
000250 2d 51 3d bd ab fd 12 3e d7 ee 22 3e 24 1a 08 bd
       -0.046219993 0.14354579 0.15911423 -0.033228055
000260 7b ea 9c 3e 1c 81 32 3e 61 19 77 3e 0b 31 ac 3e
       0.30647644 0.17432064 0.24130775 0.33631167
000270 25 4f ae 3d 7c 97 d1 3e cc e3 6a bb f4 93 4f 3d
       0.08511189 0.40935886 -0.0035841344 0.05067821
000280 07 9c 2e 3e b7 f9 11 be 47 00 1d 3e 71 2d 02 be
       0.17051707 -0.14255415 0.15332137 -0.12712647
000290 3e 30 97 be 12 54 14 3e 0f c6 f3 bd b9 9e 2c 3e
       -0.29528993 0.14485195 -0.11903011 0.16857423
0002a0 f8 3c d6 be aa 7e 84 3e aa 74 02 be e9 9b 98 be
       -0.4184339 0.25877887 -0.12739816 -0.2980645
0002b0 04 bc 46 3d 4f b0 16 3d ee 4d d9 3d 6a fa f9 3d
       0.04851915 0.036789235 0.10610567 0.12205966
0002c0 a3 bf ae 3d 18 e8 3b 3e 15 8d 8c 3d da 06 2b bc
       0.085326456 0.18350255 0.06862847 -0.010438645
0002d0 22 d1 33 bd 23 22 c4 3d 39 b3 55 3d 24 da 45 3d
       -0.043900616 0.095768236 0.052172873 0.04830374
0002e0 84 a1 67 be f1 c9 ca bd 8a 45 74 bd 5d dc 9b be
       -0.22620207 -0.099017985 -0.05963663 -0.3044156
0002f0 37 6b 0c bd 93 3c 4e bd 79 cb 47 3d 7f 29 34 3e
       -0.034281936 -0.050350737 0.04877803 0.17593955
000300 4f 7c 7d bc d0 1b 26 be 44 fc 13 bd 0e 89 35 be
       -0.015471532 -0.16221547 -0.03612925 -0.17728063
000310 2b 1e 2d be e4 a2 23 3d 69 c5 08 be 5a ea 21 be
       -0.1690604 0.039950266 -0.13356556 -0.15812054
000320 80 d7 e3 be 29 f6 c1 3d b5 68 18 3e 02 0d a8 be
       -0.4450035 0.094707794 0.14883693 -0.32822424
000330 64 91 04 3d 72 f4 99 be 9b 92 42 3e 33 ea 2b be
       0.032365218 -0.3006931 0.19001238 -0.16788559
000340 47 f6 1b bd 90 da d0 3d 64 06 24 3e bc 17 16 3e
       -0.038076665 0.101979375 0.16018063 0.14657491
000350 6a 3e fe 3d cf a8 3e 3e 66 c5 67 bd 3c bd 57 3d
       0.12414248 0.18619083 -0.05658474 0.052670702
000360 6d eb dc be 7a 8f a0 3d 25 d2 78 be 63 62 bc be
       -0.43148366 0.07839866 -0.24298914 -0.36793813
000370 f2 05 1d bd d8 a1 be be 8a 4e fc 3b 5a 07 e8 3d
       -0.038335748 -0.37232852 0.0076997923 0.11329527
000380 30 eb 08 3c d1 a4 1a 3e 7f 8d 09 be f6 36 bb 3d
       0.008356854 0.15101935 -0.13432883 0.09141342
000390 b8 bb 2d be 98 98 26 bd 39 59 14 3e d8 1c 82 bc
       -0.1696614 -0.04067287 0.1448716 -0.015882894
0003a0 6c 5a 2d 3d 6a 9e 1c be c9 92 e4 bd 94 9f 21 bd
       0.04232256 -0.15294805 -0.111608095 -0.039458826
0003b0 14 12 00 be 20 09 bc bb 02 81 5e bd 60 28 5c 3c
       -0.12506896 -0.0057383925 -0.05432225 0.0134373605
0003c0 7c 21 04 bd b0 c2 61 bd 3a 3c 7e bd 13 9d 0e 3e
       -0.032258496 -0.05511731 -0.062069155 0.13927107
0003d0 90 ea 95 bc eb c6 0e 3e 52 89 a4 3d 80 e4 55 bc
       -0.018300325 0.13943069 0.08034004 -0.013054967
0003e0 18 ed 75 3d d0 7d 07 3d 12 42 68 bd 1e 7c ab bd
       0.060040563 0.03307897 -0.056703635 -0.08373283
0003f0 27 fe 9d bd c0 bb 27 be c8 2f 87 3c c0 3b 05 bc
       -0.07714491 -0.16380215 0.016502276 -0.008131921

fc3.bias f4 [16]
000000 27 f7 2c 3e a5 65 6d 3e eb e6 09 be fc ec 09 be
       0.16891156 0.23183306 -0.13466994 -0.13469309
000010 a7 53 a8 3d 2e 38 97 3e 68 a7 87 3e 05 04 05 be
       0.082190804 0.2953505 0.26494908 -0.12989815
000020 52 5a 9f 3d 48 55 a7 bd dc 45 82 be 10 42 85 3e
       0.07780899 -0.08170563 -0.25443923 0.26026964
000030 59 d6 df bd 70 87 e5 3d 42 d9 0b be 19 de 09 be
       -0.109295554 0.11207473 -0.13657096 -0.1346363

out.weight f4 [1, 16]
000000 6e ec 92 3e 68 af a8 3e ae 74 08 be c2 ce 2b be
       0.28696007 0.32946324 -0.1332576 -0.1677809
000010 9b 4b 6f be c4 2d 81 3e 8e f4 c5 3e 96 32 4d 3e
       -0.23368685 0.2523023 0.38663143 0.20038828
000020 43 fb 99 3e 0c 6a 14 be 99 05 0a bf a8 b3 83 3e
       0.3007451 -0.14493579 -0.5391479 0.25723004
000030 a6 00 4a be c7 75 df be 67 74 c4 be 14 c3 bb 3d
       -0.1972681 -0.43644544 -0.38370058 0.091680676
